node {
  name: "global_step/Initializer/zeros"
  op: "Const"
  attr {
    key: "_class"
    value {
      list {
        s: "loc:@global_step"
      }
    }
  }
  attr {
    key: "_output_shapes"
    value {
      list {
        shape {
        }
      }
    }
  }
  attr {
    key: "dtype"
    value {
      type: DT_INT64
    }
  }
  attr {
    key: "value"
    value {
      tensor {
        dtype: DT_INT64
        tensor_shape {
        }
        int64_val: 0
      }
    }
  }
}
node {
  name: "global_step"
  op: "VariableV2"
  attr {
    key: "_class"
    value {
      list {
        s: "loc:@global_step"
      }
    }
  }
  attr {
    key: "_output_shapes"
    value {
      list {
        shape {
        }
      }
    }
  }
  attr {
    key: "container"
    value {
      s: ""
    }
  }
  attr {
    key: "dtype"
    value {
      type: DT_INT64
    }
  }
  attr {
    key: "shape"
    value {
      shape {
      }
    }
  }
  attr {
    key: "shared_name"
    value {
      s: ""
    }
  }
}
node {
  name: "global_step/Assign"
  op: "Assign"
  input: "global_step"
  input: "global_step/Initializer/zeros"
  attr {
    key: "T"
    value {
      type: DT_INT64
    }
  }
  attr {
    key: "_class"
    value {
      list {
        s: "loc:@global_step"
      }
    }
  }
  attr {
    key: "_output_shapes"
    value {
      list {
        shape {
        }
      }
    }
  }
  attr {
    key: "use_locking"
    value {
      b: true
    }
  }
  attr {
    key: "validate_shape"
    value {
      b: true
    }
  }
}
node {
  name: "global_step/read"
  op: "Identity"
  input: "global_step"
  attr {
    key: "T"
    value {
      type: DT_INT64
    }
  }
  attr {
    key: "_class"
    value {
      list {
        s: "loc:@global_step"
      }
    }
  }
  attr {
    key: "_output_shapes"
    value {
      list {
        shape {
        }
      }
    }
  }
}
node {
  name: "IsVariableInitialized"
  op: "IsVariableInitialized"
  input: "global_step"
  attr {
    key: "_class"
    value {
      list {
        s: "loc:@global_step"
      }
    }
  }
  attr {
    key: "_output_shapes"
    value {
      list {
        shape {
        }
      }
    }
  }
  attr {
    key: "dtype"
    value {
      type: DT_INT64
    }
  }
}
node {
  name: "cond/Switch"
  op: "Switch"
  input: "IsVariableInitialized"
  input: "IsVariableInitialized"
  attr {
    key: "T"
    value {
      type: DT_BOOL
    }
  }
  attr {
    key: "_output_shapes"
    value {
      list {
        shape {
        }
        shape {
        }
      }
    }
  }
}
node {
  name: "cond/switch_t"
  op: "Identity"
  input: "cond/Switch:1"
  attr {
    key: "T"
    value {
      type: DT_BOOL
    }
  }
  attr {
    key: "_output_shapes"
    value {
      list {
        shape {
        }
      }
    }
  }
}
node {
  name: "cond/switch_f"
  op: "Identity"
  input: "cond/Switch"
  attr {
    key: "T"
    value {
      type: DT_BOOL
    }
  }
  attr {
    key: "_output_shapes"
    value {
      list {
        shape {
        }
      }
    }
  }
}
node {
  name: "cond/pred_id"
  op: "Identity"
  input: "IsVariableInitialized"
  attr {
    key: "T"
    value {
      type: DT_BOOL
    }
  }
  attr {
    key: "_output_shapes"
    value {
      list {
        shape {
        }
      }
    }
  }
}
node {
  name: "cond/read/Switch"
  op: "RefSwitch"
  input: "global_step"
  input: "cond/pred_id"
  attr {
    key: "T"
    value {
      type: DT_INT64
    }
  }
  attr {
    key: "_class"
    value {
      list {
        s: "loc:@global_step"
      }
    }
  }
  attr {
    key: "_output_shapes"
    value {
      list {
        shape {
        }
        shape {
        }
      }
    }
  }
}
node {
  name: "cond/read"
  op: "Identity"
  input: "cond/read/Switch:1"
  attr {
    key: "T"
    value {
      type: DT_INT64
    }
  }
  attr {
    key: "_output_shapes"
    value {
      list {
        shape {
        }
      }
    }
  }
}
node {
  name: "cond/Switch_1"
  op: "Switch"
  input: "global_step/Initializer/zeros"
  input: "cond/pred_id"
  attr {
    key: "T"
    value {
      type: DT_INT64
    }
  }
  attr {
    key: "_class"
    value {
      list {
        s: "loc:@global_step"
      }
    }
  }
  attr {
    key: "_output_shapes"
    value {
      list {
        shape {
        }
        shape {
        }
      }
    }
  }
}
node {
  name: "cond/Merge"
  op: "Merge"
  input: "cond/Switch_1"
  input: "cond/read"
  attr {
    key: "N"
    value {
      i: 2
    }
  }
  attr {
    key: "T"
    value {
      type: DT_INT64
    }
  }
  attr {
    key: "_output_shapes"
    value {
      list {
        shape {
        }
        shape {
        }
      }
    }
  }
}
node {
  name: "add/y"
  op: "Const"
  attr {
    key: "_output_shapes"
    value {
      list {
        shape {
        }
      }
    }
  }
  attr {
    key: "dtype"
    value {
      type: DT_INT64
    }
  }
  attr {
    key: "value"
    value {
      tensor {
        dtype: DT_INT64
        tensor_shape {
        }
        int64_val: 0
      }
    }
  }
}
node {
  name: "add"
  op: "Add"
  input: "cond/Merge"
  input: "add/y"
  attr {
    key: "T"
    value {
      type: DT_INT64
    }
  }
  attr {
    key: "_output_shapes"
    value {
      list {
        shape {
        }
      }
    }
  }
}
node {
  name: "enqueue_input/fifo_queue"
  op: "FIFOQueueV2"
  device: "/device:CPU:0"
  attr {
    key: "_output_shapes"
    value {
      list {
        shape {
        }
      }
    }
  }
  attr {
    key: "capacity"
    value {
      i: 1000
    }
  }
  attr {
    key: "component_types"
    value {
      list {
        type: DT_INT64
        type: DT_INT32
        type: DT_INT32
        type: DT_INT32
      }
    }
  }
  attr {
    key: "container"
    value {
      s: ""
    }
  }
  attr {
    key: "shapes"
    value {
      list {
        shape {
        }
        shape {
          dim {
            size: 5
          }
        }
        shape {
          dim {
            size: 4
          }
        }
        shape {
          dim {
            size: 5
          }
        }
      }
    }
  }
  attr {
    key: "shared_name"
    value {
      s: ""
    }
  }
}
node {
  name: "enqueue_input/Placeholder"
  op: "Placeholder"
  device: "/device:CPU:0"
  attr {
    key: "_output_shapes"
    value {
      list {
        shape {
          unknown_rank: true
        }
      }
    }
  }
  attr {
    key: "dtype"
    value {
      type: DT_INT64
    }
  }
  attr {
    key: "shape"
    value {
      shape {
        unknown_rank: true
      }
    }
  }
}
node {
  name: "enqueue_input/Placeholder_1"
  op: "Placeholder"
  device: "/device:CPU:0"
  attr {
    key: "_output_shapes"
    value {
      list {
        shape {
          unknown_rank: true
        }
      }
    }
  }
  attr {
    key: "dtype"
    value {
      type: DT_INT32
    }
  }
  attr {
    key: "shape"
    value {
      shape {
        unknown_rank: true
      }
    }
  }
}
node {
  name: "enqueue_input/Placeholder_2"
  op: "Placeholder"
  device: "/device:CPU:0"
  attr {
    key: "_output_shapes"
    value {
      list {
        shape {
          unknown_rank: true
        }
      }
    }
  }
  attr {
    key: "dtype"
    value {
      type: DT_INT32
    }
  }
  attr {
    key: "shape"
    value {
      shape {
        unknown_rank: true
      }
    }
  }
}
node {
  name: "enqueue_input/Placeholder_3"
  op: "Placeholder"
  device: "/device:CPU:0"
  attr {
    key: "_output_shapes"
    value {
      list {
        shape {
          unknown_rank: true
        }
      }
    }
  }
  attr {
    key: "dtype"
    value {
      type: DT_INT32
    }
  }
  attr {
    key: "shape"
    value {
      shape {
        unknown_rank: true
      }
    }
  }
}
node {
  name: "enqueue_input/fifo_queue_EnqueueMany"
  op: "QueueEnqueueManyV2"
  input: "enqueue_input/fifo_queue"
  input: "enqueue_input/Placeholder"
  input: "enqueue_input/Placeholder_1"
  input: "enqueue_input/Placeholder_2"
  input: "enqueue_input/Placeholder_3"
  device: "/device:CPU:0"
  attr {
    key: "Tcomponents"
    value {
      list {
        type: DT_INT64
        type: DT_INT32
        type: DT_INT32
        type: DT_INT32
      }
    }
  }
  attr {
    key: "timeout_ms"
    value {
      i: -1
    }
  }
}
node {
  name: "enqueue_input/fifo_queue_Close"
  op: "QueueCloseV2"
  input: "enqueue_input/fifo_queue"
  device: "/device:CPU:0"
  attr {
    key: "cancel_pending_enqueues"
    value {
      b: false
    }
  }
}
node {
  name: "enqueue_input/fifo_queue_Close_1"
  op: "QueueCloseV2"
  input: "enqueue_input/fifo_queue"
  device: "/device:CPU:0"
  attr {
    key: "cancel_pending_enqueues"
    value {
      b: true
    }
  }
}
node {
  name: "enqueue_input/fifo_queue_Size"
  op: "QueueSizeV2"
  input: "enqueue_input/fifo_queue"
  device: "/device:CPU:0"
  attr {
    key: "_output_shapes"
    value {
      list {
        shape {
        }
      }
    }
  }
}
node {
  name: "enqueue_input/sub/y"
  op: "Const"
  device: "/device:CPU:0"
  attr {
    key: "_output_shapes"
    value {
      list {
        shape {
        }
      }
    }
  }
  attr {
    key: "dtype"
    value {
      type: DT_INT32
    }
  }
  attr {
    key: "value"
    value {
      tensor {
        dtype: DT_INT32
        tensor_shape {
        }
        int_val: 0
      }
    }
  }
}
node {
  name: "enqueue_input/sub"
  op: "Sub"
  input: "enqueue_input/fifo_queue_Size"
  input: "enqueue_input/sub/y"
  device: "/device:CPU:0"
  attr {
    key: "T"
    value {
      type: DT_INT32
    }
  }
  attr {
    key: "_output_shapes"
    value {
      list {
        shape {
        }
      }
    }
  }
}
node {
  name: "enqueue_input/Maximum/x"
  op: "Const"
  device: "/device:CPU:0"
  attr {
    key: "_output_shapes"
    value {
      list {
        shape {
        }
      }
    }
  }
  attr {
    key: "dtype"
    value {
      type: DT_INT32
    }
  }
  attr {
    key: "value"
    value {
      tensor {
        dtype: DT_INT32
        tensor_shape {
        }
        int_val: 0
      }
    }
  }
}
node {
  name: "enqueue_input/Maximum"
  op: "Maximum"
  input: "enqueue_input/Maximum/x"
  input: "enqueue_input/sub"
  device: "/device:CPU:0"
  attr {
    key: "T"
    value {
      type: DT_INT32
    }
  }
  attr {
    key: "_output_shapes"
    value {
      list {
        shape {
        }
      }
    }
  }
}
node {
  name: "enqueue_input/Cast"
  op: "Cast"
  input: "enqueue_input/Maximum"
  device: "/device:CPU:0"
  attr {
    key: "DstT"
    value {
      type: DT_FLOAT
    }
  }
  attr {
    key: "SrcT"
    value {
      type: DT_INT32
    }
  }
  attr {
    key: "_output_shapes"
    value {
      list {
        shape {
        }
      }
    }
  }
}
node {
  name: "enqueue_input/mul/y"
  op: "Const"
  device: "/device:CPU:0"
  attr {
    key: "_output_shapes"
    value {
      list {
        shape {
        }
      }
    }
  }
  attr {
    key: "dtype"
    value {
      type: DT_FLOAT
    }
  }
  attr {
    key: "value"
    value {
      tensor {
        dtype: DT_FLOAT
        tensor_shape {
        }
        float_val: 0.0010000000474974513
      }
    }
  }
}
node {
  name: "enqueue_input/mul"
  op: "Mul"
  input: "enqueue_input/Cast"
  input: "enqueue_input/mul/y"
  device: "/device:CPU:0"
  attr {
    key: "T"
    value {
      type: DT_FLOAT
    }
  }
  attr {
    key: "_output_shapes"
    value {
      list {
        shape {
        }
      }
    }
  }
}
node {
  name: "enqueue_input/queue/enqueue_input/fifo_queuefraction_over_0_of_1000_full/tags"
  op: "Const"
  device: "/device:CPU:0"
  attr {
    key: "_output_shapes"
    value {
      list {
        shape {
        }
      }
    }
  }
  attr {
    key: "dtype"
    value {
      type: DT_STRING
    }
  }
  attr {
    key: "value"
    value {
      tensor {
        dtype: DT_STRING
        tensor_shape {
        }
        string_val: "enqueue_input/queue/enqueue_input/fifo_queuefraction_over_0_of_1000_full"
      }
    }
  }
}
node {
  name: "enqueue_input/queue/enqueue_input/fifo_queuefraction_over_0_of_1000_full"
  op: "ScalarSummary"
  input: "enqueue_input/queue/enqueue_input/fifo_queuefraction_over_0_of_1000_full/tags"
  input: "enqueue_input/mul"
  device: "/device:CPU:0"
  attr {
    key: "T"
    value {
      type: DT_FLOAT
    }
  }
  attr {
    key: "_output_shapes"
    value {
      list {
        shape {
        }
      }
    }
  }
}
node {
  name: "fifo_queue_DequeueMany/n"
  op: "Const"
  device: "/device:CPU:0"
  attr {
    key: "_output_shapes"
    value {
      list {
        shape {
        }
      }
    }
  }
  attr {
    key: "dtype"
    value {
      type: DT_INT32
    }
  }
  attr {
    key: "value"
    value {
      tensor {
        dtype: DT_INT32
        tensor_shape {
        }
        int_val: 3
      }
    }
  }
}
node {
  name: "fifo_queue_DequeueMany"
  op: "QueueDequeueManyV2"
  input: "enqueue_input/fifo_queue"
  input: "fifo_queue_DequeueMany/n"
  device: "/device:CPU:0"
  attr {
    key: "_output_shapes"
    value {
      list {
        shape {
          dim {
            size: 3
          }
        }
        shape {
          dim {
            size: 3
          }
          dim {
            size: 5
          }
        }
        shape {
          dim {
            size: 3
          }
          dim {
            size: 4
          }
        }
        shape {
          dim {
            size: 3
          }
          dim {
            size: 5
          }
        }
      }
    }
  }
  attr {
    key: "component_types"
    value {
      list {
        type: DT_INT64
        type: DT_INT32
        type: DT_INT32
        type: DT_INT32
      }
    }
  }
  attr {
    key: "timeout_ms"
    value {
      i: -1
    }
  }
}
node {
  name: "one_hot/on_value"
  op: "Const"
  input: "^add"
  attr {
    key: "_output_shapes"
    value {
      list {
        shape {
        }
      }
    }
  }
  attr {
    key: "dtype"
    value {
      type: DT_FLOAT
    }
  }
  attr {
    key: "value"
    value {
      tensor {
        dtype: DT_FLOAT
        tensor_shape {
        }
        float_val: 1.0
      }
    }
  }
}
node {
  name: "one_hot/off_value"
  op: "Const"
  input: "^add"
  attr {
    key: "_output_shapes"
    value {
      list {
        shape {
        }
      }
    }
  }
  attr {
    key: "dtype"
    value {
      type: DT_FLOAT
    }
  }
  attr {
    key: "value"
    value {
      tensor {
        dtype: DT_FLOAT
        tensor_shape {
        }
        float_val: 0.0
      }
    }
  }
}
node {
  name: "one_hot/depth"
  op: "Const"
  input: "^add"
  attr {
    key: "_output_shapes"
    value {
      list {
        shape {
        }
      }
    }
  }
  attr {
    key: "dtype"
    value {
      type: DT_INT32
    }
  }
  attr {
    key: "value"
    value {
      tensor {
        dtype: DT_INT32
        tensor_shape {
        }
        int_val: 7
      }
    }
  }
}
node {
  name: "one_hot"
  op: "OneHot"
  input: "fifo_queue_DequeueMany:2"
  input: "one_hot/depth"
  input: "one_hot/on_value"
  input: "one_hot/off_value"
  attr {
    key: "T"
    value {
      type: DT_FLOAT
    }
  }
  attr {
    key: "TI"
    value {
      type: DT_INT32
    }
  }
  attr {
    key: "_output_shapes"
    value {
      list {
        shape {
          dim {
            size: 3
          }
          dim {
            size: 4
          }
          dim {
            size: 7
          }
        }
      }
    }
  }
  attr {
    key: "axis"
    value {
      i: -1
    }
  }
}
node {
  name: "one_hot_1/on_value"
  op: "Const"
  input: "^add"
  attr {
    key: "_output_shapes"
    value {
      list {
        shape {
        }
      }
    }
  }
  attr {
    key: "dtype"
    value {
      type: DT_FLOAT
    }
  }
  attr {
    key: "value"
    value {
      tensor {
        dtype: DT_FLOAT
        tensor_shape {
        }
        float_val: 1.0
      }
    }
  }
}
node {
  name: "one_hot_1/off_value"
  op: "Const"
  input: "^add"
  attr {
    key: "_output_shapes"
    value {
      list {
        shape {
        }
      }
    }
  }
  attr {
    key: "dtype"
    value {
      type: DT_FLOAT
    }
  }
  attr {
    key: "value"
    value {
      tensor {
        dtype: DT_FLOAT
        tensor_shape {
        }
        float_val: 0.0
      }
    }
  }
}
node {
  name: "one_hot_1/depth"
  op: "Const"
  input: "^add"
  attr {
    key: "_output_shapes"
    value {
      list {
        shape {
        }
      }
    }
  }
  attr {
    key: "dtype"
    value {
      type: DT_INT32
    }
  }
  attr {
    key: "value"
    value {
      tensor {
        dtype: DT_INT32
        tensor_shape {
        }
        int_val: 7
      }
    }
  }
}
node {
  name: "one_hot_1"
  op: "OneHot"
  input: "fifo_queue_DequeueMany:1"
  input: "one_hot_1/depth"
  input: "one_hot_1/on_value"
  input: "one_hot_1/off_value"
  attr {
    key: "T"
    value {
      type: DT_FLOAT
    }
  }
  attr {
    key: "TI"
    value {
      type: DT_INT32
    }
  }
  attr {
    key: "_output_shapes"
    value {
      list {
        shape {
          dim {
            size: 3
          }
          dim {
            size: 5
          }
          dim {
            size: 7
          }
        }
      }
    }
  }
  attr {
    key: "axis"
    value {
      i: -1
    }
  }
}
node {
  name: "encoder/stack_bidirectional_rnn/cell_0/bidirectional_rnn/fw/Rank"
  op: "Const"
  input: "^add"
  attr {
    key: "_output_shapes"
    value {
      list {
        shape {
        }
      }
    }
  }
  attr {
    key: "dtype"
    value {
      type: DT_INT32
    }
  }
  attr {
    key: "value"
    value {
      tensor {
        dtype: DT_INT32
        tensor_shape {
        }
        int_val: 3
      }
    }
  }
}
node {
  name: "encoder/stack_bidirectional_rnn/cell_0/bidirectional_rnn/fw/range/start"
  op: "Const"
  input: "^add"
  attr {
    key: "_output_shapes"
    value {
      list {
        shape {
        }
      }
    }
  }
  attr {
    key: "dtype"
    value {
      type: DT_INT32
    }
  }
  attr {
    key: "value"
    value {
      tensor {
        dtype: DT_INT32
        tensor_shape {
        }
        int_val: 2
      }
    }
  }
}
node {
  name: "encoder/stack_bidirectional_rnn/cell_0/bidirectional_rnn/fw/range/delta"
  op: "Const"
  input: "^add"
  attr {
    key: "_output_shapes"
    value {
      list {
        shape {
        }
      }
    }
  }
  attr {
    key: "dtype"
    value {
      type: DT_INT32
    }
  }
  attr {
    key: "value"
    value {
      tensor {
        dtype: DT_INT32
        tensor_shape {
        }
        int_val: 1
      }
    }
  }
}
node {
  name: "encoder/stack_bidirectional_rnn/cell_0/bidirectional_rnn/fw/range"
  op: "Range"
  input: "encoder/stack_bidirectional_rnn/cell_0/bidirectional_rnn/fw/range/start"
  input: "encoder/stack_bidirectional_rnn/cell_0/bidirectional_rnn/fw/Rank"
  input: "encoder/stack_bidirectional_rnn/cell_0/bidirectional_rnn/fw/range/delta"
  attr {
    key: "Tidx"
    value {
      type: DT_INT32
    }
  }
  attr {
    key: "_output_shapes"
    value {
      list {
        shape {
          dim {
            size: 1
          }
        }
      }
    }
  }
}
node {
  name: "encoder/stack_bidirectional_rnn/cell_0/bidirectional_rnn/fw/concat/values_0"
  op: "Const"
  input: "^add"
  attr {
    key: "_output_shapes"
    value {
      list {
        shape {
          dim {
            size: 2
          }
        }
      }
    }
  }
  attr {
    key: "dtype"
    value {
      type: DT_INT32
    }
  }
  attr {
    key: "value"
    value {
      tensor {
        dtype: DT_INT32
        tensor_shape {
          dim {
            size: 2
          }
        }
        tensor_content: "\001\000\000\000\000\000\000\000"
      }
    }
  }
}
node {
  name: "encoder/stack_bidirectional_rnn/cell_0/bidirectional_rnn/fw/concat/axis"
  op: "Const"
  input: "^add"
  attr {
    key: "_output_shapes"
    value {
      list {
        shape {
        }
      }
    }
  }
  attr {
    key: "dtype"
    value {
      type: DT_INT32
    }
  }
  attr {
    key: "value"
    value {
      tensor {
        dtype: DT_INT32
        tensor_shape {
        }
        int_val: 0
      }
    }
  }
}
node {
  name: "encoder/stack_bidirectional_rnn/cell_0/bidirectional_rnn/fw/concat"
  op: "ConcatV2"
  input: "encoder/stack_bidirectional_rnn/cell_0/bidirectional_rnn/fw/concat/values_0"
  input: "encoder/stack_bidirectional_rnn/cell_0/bidirectional_rnn/fw/range"
  input: "encoder/stack_bidirectional_rnn/cell_0/bidirectional_rnn/fw/concat/axis"
  attr {
    key: "N"
    value {
      i: 2
    }
  }
  attr {
    key: "T"
    value {
      type: DT_INT32
    }
  }
  attr {
    key: "Tidx"
    value {
      type: DT_INT32
    }
  }
  attr {
    key: "_output_shapes"
    value {
      list {
        shape {
          dim {
            size: 3
          }
        }
      }
    }
  }
}
node {
  name: "encoder/stack_bidirectional_rnn/cell_0/bidirectional_rnn/fw/transpose"
  op: "Transpose"
  input: "one_hot"
  input: "encoder/stack_bidirectional_rnn/cell_0/bidirectional_rnn/fw/concat"
  attr {
    key: "T"
    value {
      type: DT_FLOAT
    }
  }
  attr {
    key: "Tperm"
    value {
      type: DT_INT32
    }
  }
  attr {
    key: "_output_shapes"
    value {
      list {
        shape {
          dim {
            size: 4
          }
          dim {
            size: 3
          }
          dim {
            size: 7
          }
        }
      }
    }
  }
}
node {
  name: "encoder/stack_bidirectional_rnn/cell_0/bidirectional_rnn/fw/fw/BasicLSTMCellZeroState/Const"
  op: "Const"
  input: "^add"
  attr {
    key: "_output_shapes"
    value {
      list {
        shape {
          dim {
            size: 1
          }
        }
      }
    }
  }
  attr {
    key: "dtype"
    value {
      type: DT_INT32
    }
  }
  attr {
    key: "value"
    value {
      tensor {
        dtype: DT_INT32
        tensor_shape {
          dim {
            size: 1
          }
        }
        int_val: 3
      }
    }
  }
}
node {
  name: "encoder/stack_bidirectional_rnn/cell_0/bidirectional_rnn/fw/fw/BasicLSTMCellZeroState/Const_1"
  op: "Const"
  input: "^add"
  attr {
    key: "_output_shapes"
    value {
      list {
        shape {
          dim {
            size: 1
          }
        }
      }
    }
  }
  attr {
    key: "dtype"
    value {
      type: DT_INT32
    }
  }
  attr {
    key: "value"
    value {
      tensor {
        dtype: DT_INT32
        tensor_shape {
          dim {
            size: 1
          }
        }
        int_val: 7
      }
    }
  }
}
node {
  name: "encoder/stack_bidirectional_rnn/cell_0/bidirectional_rnn/fw/fw/BasicLSTMCellZeroState/concat/axis"
  op: "Const"
  input: "^add"
  attr {
    key: "_output_shapes"
    value {
      list {
        shape {
        }
      }
    }
  }
  attr {
    key: "dtype"
    value {
      type: DT_INT32
    }
  }
  attr {
    key: "value"
    value {
      tensor {
        dtype: DT_INT32
        tensor_shape {
        }
        int_val: 0
      }
    }
  }
}
node {
  name: "encoder/stack_bidirectional_rnn/cell_0/bidirectional_rnn/fw/fw/BasicLSTMCellZeroState/concat"
  op: "ConcatV2"
  input: "encoder/stack_bidirectional_rnn/cell_0/bidirectional_rnn/fw/fw/BasicLSTMCellZeroState/Const"
  input: "encoder/stack_bidirectional_rnn/cell_0/bidirectional_rnn/fw/fw/BasicLSTMCellZeroState/Const_1"
  input: "encoder/stack_bidirectional_rnn/cell_0/bidirectional_rnn/fw/fw/BasicLSTMCellZeroState/concat/axis"
  attr {
    key: "N"
    value {
      i: 2
    }
  }
  attr {
    key: "T"
    value {
      type: DT_INT32
    }
  }
  attr {
    key: "Tidx"
    value {
      type: DT_INT32
    }
  }
  attr {
    key: "_output_shapes"
    value {
      list {
        shape {
          dim {
            size: 2
          }
        }
      }
    }
  }
}
node {
  name: "encoder/stack_bidirectional_rnn/cell_0/bidirectional_rnn/fw/fw/BasicLSTMCellZeroState/zeros/Const"
  op: "Const"
  input: "^add"
  attr {
    key: "_output_shapes"
    value {
      list {
        shape {
        }
      }
    }
  }
  attr {
    key: "dtype"
    value {
      type: DT_FLOAT
    }
  }
  attr {
    key: "value"
    value {
      tensor {
        dtype: DT_FLOAT
        tensor_shape {
        }
        float_val: 0.0
      }
    }
  }
}
node {
  name: "encoder/stack_bidirectional_rnn/cell_0/bidirectional_rnn/fw/fw/BasicLSTMCellZeroState/zeros"
  op: "Fill"
  input: "encoder/stack_bidirectional_rnn/cell_0/bidirectional_rnn/fw/fw/BasicLSTMCellZeroState/concat"
  input: "encoder/stack_bidirectional_rnn/cell_0/bidirectional_rnn/fw/fw/BasicLSTMCellZeroState/zeros/Const"
  attr {
    key: "T"
    value {
      type: DT_FLOAT
    }
  }
  attr {
    key: "_output_shapes"
    value {
      list {
        shape {
          dim {
            size: 3
          }
          dim {
            size: 7
          }
        }
      }
    }
  }
}
node {
  name: "encoder/stack_bidirectional_rnn/cell_0/bidirectional_rnn/fw/fw/BasicLSTMCellZeroState/Const_2"
  op: "Const"
  input: "^add"
  attr {
    key: "_output_shapes"
    value {
      list {
        shape {
          dim {
            size: 1
          }
        }
      }
    }
  }
  attr {
    key: "dtype"
    value {
      type: DT_INT32
    }
  }
  attr {
    key: "value"
    value {
      tensor {
        dtype: DT_INT32
        tensor_shape {
          dim {
            size: 1
          }
        }
        int_val: 3
      }
    }
  }
}
node {
  name: "encoder/stack_bidirectional_rnn/cell_0/bidirectional_rnn/fw/fw/BasicLSTMCellZeroState/Const_3"
  op: "Const"
  input: "^add"
  attr {
    key: "_output_shapes"
    value {
      list {
        shape {
          dim {
            size: 1
          }
        }
      }
    }
  }
  attr {
    key: "dtype"
    value {
      type: DT_INT32
    }
  }
  attr {
    key: "value"
    value {
      tensor {
        dtype: DT_INT32
        tensor_shape {
          dim {
            size: 1
          }
        }
        int_val: 7
      }
    }
  }
}
node {
  name: "encoder/stack_bidirectional_rnn/cell_0/bidirectional_rnn/fw/fw/BasicLSTMCellZeroState/Const_4"
  op: "Const"
  input: "^add"
  attr {
    key: "_output_shapes"
    value {
      list {
        shape {
          dim {
            size: 1
          }
        }
      }
    }
  }
  attr {
    key: "dtype"
    value {
      type: DT_INT32
    }
  }
  attr {
    key: "value"
    value {
      tensor {
        dtype: DT_INT32
        tensor_shape {
          dim {
            size: 1
          }
        }
        int_val: 3
      }
    }
  }
}
node {
  name: "encoder/stack_bidirectional_rnn/cell_0/bidirectional_rnn/fw/fw/BasicLSTMCellZeroState/Const_5"
  op: "Const"
  input: "^add"
  attr {
    key: "_output_shapes"
    value {
      list {
        shape {
          dim {
            size: 1
          }
        }
      }
    }
  }
  attr {
    key: "dtype"
    value {
      type: DT_INT32
    }
  }
  attr {
    key: "value"
    value {
      tensor {
        dtype: DT_INT32
        tensor_shape {
          dim {
            size: 1
          }
        }
        int_val: 7
      }
    }
  }
}
node {
  name: "encoder/stack_bidirectional_rnn/cell_0/bidirectional_rnn/fw/fw/BasicLSTMCellZeroState/concat_1/axis"
  op: "Const"
  input: "^add"
  attr {
    key: "_output_shapes"
    value {
      list {
        shape {
        }
      }
    }
  }
  attr {
    key: "dtype"
    value {
      type: DT_INT32
    }
  }
  attr {
    key: "value"
    value {
      tensor {
        dtype: DT_INT32
        tensor_shape {
        }
        int_val: 0
      }
    }
  }
}
node {
  name: "encoder/stack_bidirectional_rnn/cell_0/bidirectional_rnn/fw/fw/BasicLSTMCellZeroState/concat_1"
  op: "ConcatV2"
  input: "encoder/stack_bidirectional_rnn/cell_0/bidirectional_rnn/fw/fw/BasicLSTMCellZeroState/Const_4"
  input: "encoder/stack_bidirectional_rnn/cell_0/bidirectional_rnn/fw/fw/BasicLSTMCellZeroState/Const_5"
  input: "encoder/stack_bidirectional_rnn/cell_0/bidirectional_rnn/fw/fw/BasicLSTMCellZeroState/concat_1/axis"
  attr {
    key: "N"
    value {
      i: 2
    }
  }
  attr {
    key: "T"
    value {
      type: DT_INT32
    }
  }
  attr {
    key: "Tidx"
    value {
      type: DT_INT32
    }
  }
  attr {
    key: "_output_shapes"
    value {
      list {
        shape {
          dim {
            size: 2
          }
        }
      }
    }
  }
}
node {
  name: "encoder/stack_bidirectional_rnn/cell_0/bidirectional_rnn/fw/fw/BasicLSTMCellZeroState/zeros_1/Const"
  op: "Const"
  input: "^add"
  attr {
    key: "_output_shapes"
    value {
      list {
        shape {
        }
      }
    }
  }
  attr {
    key: "dtype"
    value {
      type: DT_FLOAT
    }
  }
  attr {
    key: "value"
    value {
      tensor {
        dtype: DT_FLOAT
        tensor_shape {
        }
        float_val: 0.0
      }
    }
  }
}
node {
  name: "encoder/stack_bidirectional_rnn/cell_0/bidirectional_rnn/fw/fw/BasicLSTMCellZeroState/zeros_1"
  op: "Fill"
  input: "encoder/stack_bidirectional_rnn/cell_0/bidirectional_rnn/fw/fw/BasicLSTMCellZeroState/concat_1"
  input: "encoder/stack_bidirectional_rnn/cell_0/bidirectional_rnn/fw/fw/BasicLSTMCellZeroState/zeros_1/Const"
  attr {
    key: "T"
    value {
      type: DT_FLOAT
    }
  }
  attr {
    key: "_output_shapes"
    value {
      list {
        shape {
          dim {
            size: 3
          }
          dim {
            size: 7
          }
        }
      }
    }
  }
}
node {
  name: "encoder/stack_bidirectional_rnn/cell_0/bidirectional_rnn/fw/fw/BasicLSTMCellZeroState/Const_6"
  op: "Const"
  input: "^add"
  attr {
    key: "_output_shapes"
    value {
      list {
        shape {
          dim {
            size: 1
          }
        }
      }
    }
  }
  attr {
    key: "dtype"
    value {
      type: DT_INT32
    }
  }
  attr {
    key: "value"
    value {
      tensor {
        dtype: DT_INT32
        tensor_shape {
          dim {
            size: 1
          }
        }
        int_val: 3
      }
    }
  }
}
node {
  name: "encoder/stack_bidirectional_rnn/cell_0/bidirectional_rnn/fw/fw/BasicLSTMCellZeroState/Const_7"
  op: "Const"
  input: "^add"
  attr {
    key: "_output_shapes"
    value {
      list {
        shape {
          dim {
            size: 1
          }
        }
      }
    }
  }
  attr {
    key: "dtype"
    value {
      type: DT_INT32
    }
  }
  attr {
    key: "value"
    value {
      tensor {
        dtype: DT_INT32
        tensor_shape {
          dim {
            size: 1
          }
        }
        int_val: 7
      }
    }
  }
}
node {
  name: "encoder/stack_bidirectional_rnn/cell_0/bidirectional_rnn/fw/fw/Shape"
  op: "Const"
  input: "^add"
  attr {
    key: "_output_shapes"
    value {
      list {
        shape {
          dim {
            size: 3
          }
        }
      }
    }
  }
  attr {
    key: "dtype"
    value {
      type: DT_INT32
    }
  }
  attr {
    key: "value"
    value {
      tensor {
        dtype: DT_INT32
        tensor_shape {
          dim {
            size: 3
          }
        }
        tensor_content: "\004\000\000\000\003\000\000\000\007\000\000\000"
      }
    }
  }
}
node {
  name: "encoder/stack_bidirectional_rnn/cell_0/bidirectional_rnn/fw/fw/strided_slice/stack"
  op: "Const"
  input: "^add"
  attr {
    key: "_output_shapes"
    value {
      list {
        shape {
          dim {
            size: 1
          }
        }
      }
    }
  }
  attr {
    key: "dtype"
    value {
      type: DT_INT32
    }
  }
  attr {
    key: "value"
    value {
      tensor {
        dtype: DT_INT32
        tensor_shape {
          dim {
            size: 1
          }
        }
        int_val: 0
      }
    }
  }
}
node {
  name: "encoder/stack_bidirectional_rnn/cell_0/bidirectional_rnn/fw/fw/strided_slice/stack_1"
  op: "Const"
  input: "^add"
  attr {
    key: "_output_shapes"
    value {
      list {
        shape {
          dim {
            size: 1
          }
        }
      }
    }
  }
  attr {
    key: "dtype"
    value {
      type: DT_INT32
    }
  }
  attr {
    key: "value"
    value {
      tensor {
        dtype: DT_INT32
        tensor_shape {
          dim {
            size: 1
          }
        }
        int_val: 1
      }
    }
  }
}
node {
  name: "encoder/stack_bidirectional_rnn/cell_0/bidirectional_rnn/fw/fw/strided_slice/stack_2"
  op: "Const"
  input: "^add"
  attr {
    key: "_output_shapes"
    value {
      list {
        shape {
          dim {
            size: 1
          }
        }
      }
    }
  }
  attr {
    key: "dtype"
    value {
      type: DT_INT32
    }
  }
  attr {
    key: "value"
    value {
      tensor {
        dtype: DT_INT32
        tensor_shape {
          dim {
            size: 1
          }
        }
        int_val: 1
      }
    }
  }
}
node {
  name: "encoder/stack_bidirectional_rnn/cell_0/bidirectional_rnn/fw/fw/strided_slice"
  op: "StridedSlice"
  input: "encoder/stack_bidirectional_rnn/cell_0/bidirectional_rnn/fw/fw/Shape"
  input: "encoder/stack_bidirectional_rnn/cell_0/bidirectional_rnn/fw/fw/strided_slice/stack"
  input: "encoder/stack_bidirectional_rnn/cell_0/bidirectional_rnn/fw/fw/strided_slice/stack_1"
  input: "encoder/stack_bidirectional_rnn/cell_0/bidirectional_rnn/fw/fw/strided_slice/stack_2"
  attr {
    key: "Index"
    value {
      type: DT_INT32
    }
  }
  attr {
    key: "T"
    value {
      type: DT_INT32
    }
  }
  attr {
    key: "_output_shapes"
    value {
      list {
        shape {
        }
      }
    }
  }
  attr {
    key: "begin_mask"
    value {
      i: 0
    }
  }
  attr {
    key: "ellipsis_mask"
    value {
      i: 0
    }
  }
  attr {
    key: "end_mask"
    value {
      i: 0
    }
  }
  attr {
    key: "new_axis_mask"
    value {
      i: 0
    }
  }
  attr {
    key: "shrink_axis_mask"
    value {
      i: 1
    }
  }
}
node {
  name: "encoder/stack_bidirectional_rnn/cell_0/bidirectional_rnn/fw/fw/Const"
  op: "Const"
  input: "^add"
  attr {
    key: "_output_shapes"
    value {
      list {
        shape {
          dim {
            size: 1
          }
        }
      }
    }
  }
  attr {
    key: "dtype"
    value {
      type: DT_INT32
    }
  }
  attr {
    key: "value"
    value {
      tensor {
        dtype: DT_INT32
        tensor_shape {
          dim {
            size: 1
          }
        }
        int_val: 3
      }
    }
  }
}
node {
  name: "encoder/stack_bidirectional_rnn/cell_0/bidirectional_rnn/fw/fw/Const_1"
  op: "Const"
  input: "^add"
  attr {
    key: "_output_shapes"
    value {
      list {
        shape {
          dim {
            size: 1
          }
        }
      }
    }
  }
  attr {
    key: "dtype"
    value {
      type: DT_INT32
    }
  }
  attr {
    key: "value"
    value {
      tensor {
        dtype: DT_INT32
        tensor_shape {
          dim {
            size: 1
          }
        }
        int_val: 7
      }
    }
  }
}
node {
  name: "encoder/stack_bidirectional_rnn/cell_0/bidirectional_rnn/fw/fw/concat/axis"
  op: "Const"
  input: "^add"
  attr {
    key: "_output_shapes"
    value {
      list {
        shape {
        }
      }
    }
  }
  attr {
    key: "dtype"
    value {
      type: DT_INT32
    }
  }
  attr {
    key: "value"
    value {
      tensor {
        dtype: DT_INT32
        tensor_shape {
        }
        int_val: 0
      }
    }
  }
}
node {
  name: "encoder/stack_bidirectional_rnn/cell_0/bidirectional_rnn/fw/fw/concat"
  op: "ConcatV2"
  input: "encoder/stack_bidirectional_rnn/cell_0/bidirectional_rnn/fw/fw/Const"
  input: "encoder/stack_bidirectional_rnn/cell_0/bidirectional_rnn/fw/fw/Const_1"
  input: "encoder/stack_bidirectional_rnn/cell_0/bidirectional_rnn/fw/fw/concat/axis"
  attr {
    key: "N"
    value {
      i: 2
    }
  }
  attr {
    key: "T"
    value {
      type: DT_INT32
    }
  }
  attr {
    key: "Tidx"
    value {
      type: DT_INT32
    }
  }
  attr {
    key: "_output_shapes"
    value {
      list {
        shape {
          dim {
            size: 2
          }
        }
      }
    }
  }
}
node {
  name: "encoder/stack_bidirectional_rnn/cell_0/bidirectional_rnn/fw/fw/zeros/Const"
  op: "Const"
  input: "^add"
  attr {
    key: "_output_shapes"
    value {
      list {
        shape {
        }
      }
    }
  }
  attr {
    key: "dtype"
    value {
      type: DT_FLOAT
    }
  }
  attr {
    key: "value"
    value {
      tensor {
        dtype: DT_FLOAT
        tensor_shape {
        }
        float_val: 0.0
      }
    }
  }
}
node {
  name: "encoder/stack_bidirectional_rnn/cell_0/bidirectional_rnn/fw/fw/zeros"
  op: "Fill"
  input: "encoder/stack_bidirectional_rnn/cell_0/bidirectional_rnn/fw/fw/concat"
  input: "encoder/stack_bidirectional_rnn/cell_0/bidirectional_rnn/fw/fw/zeros/Const"
  attr {
    key: "T"
    value {
      type: DT_FLOAT
    }
  }
  attr {
    key: "_output_shapes"
    value {
      list {
        shape {
          dim {
            size: 3
          }
          dim {
            size: 7
          }
        }
      }
    }
  }
}
node {
  name: "encoder/stack_bidirectional_rnn/cell_0/bidirectional_rnn/fw/fw/time"
  op: "Const"
  input: "^add"
  attr {
    key: "_output_shapes"
    value {
      list {
        shape {
        }
      }
    }
  }
  attr {
    key: "dtype"
    value {
      type: DT_INT32
    }
  }
  attr {
    key: "value"
    value {
      tensor {
        dtype: DT_INT32
        tensor_shape {
        }
        int_val: 0
      }
    }
  }
}
node {
  name: "encoder/stack_bidirectional_rnn/cell_0/bidirectional_rnn/fw/fw/TensorArray"
  op: "TensorArrayV3"
  input: "encoder/stack_bidirectional_rnn/cell_0/bidirectional_rnn/fw/fw/strided_slice"
  attr {
    key: "_output_shapes"
    value {
      list {
        shape {
          dim {
            size: 2
          }
        }
        shape {
        }
      }
    }
  }
  attr {
    key: "clear_after_read"
    value {
      b: true
    }
  }
  attr {
    key: "dtype"
    value {
      type: DT_FLOAT
    }
  }
  attr {
    key: "dynamic_size"
    value {
      b: false
    }
  }
  attr {
    key: "element_shape"
    value {
      shape {
        unknown_rank: true
      }
    }
  }
  attr {
    key: "tensor_array_name"
    value {
      s: "encoder/stack_bidirectional_rnn/cell_0/bidirectional_rnn/fw/fw/dynamic_rnn/output_0"
    }
  }
}
node {
  name: "encoder/stack_bidirectional_rnn/cell_0/bidirectional_rnn/fw/fw/TensorArray_1"
  op: "TensorArrayV3"
  input: "encoder/stack_bidirectional_rnn/cell_0/bidirectional_rnn/fw/fw/strided_slice"
  attr {
    key: "_output_shapes"
    value {
      list {
        shape {
          dim {
            size: 2
          }
        }
        shape {
        }
      }
    }
  }
  attr {
    key: "clear_after_read"
    value {
      b: true
    }
  }
  attr {
    key: "dtype"
    value {
      type: DT_FLOAT
    }
  }
  attr {
    key: "dynamic_size"
    value {
      b: false
    }
  }
  attr {
    key: "element_shape"
    value {
      shape {
        unknown_rank: true
      }
    }
  }
  attr {
    key: "tensor_array_name"
    value {
      s: "encoder/stack_bidirectional_rnn/cell_0/bidirectional_rnn/fw/fw/dynamic_rnn/input_0"
    }
  }
}
node {
  name: "encoder/stack_bidirectional_rnn/cell_0/bidirectional_rnn/fw/fw/TensorArrayUnstack/Shape"
  op: "Const"
  input: "^add"
  attr {
    key: "_output_shapes"
    value {
      list {
        shape {
          dim {
            size: 3
          }
        }
      }
    }
  }
  attr {
    key: "dtype"
    value {
      type: DT_INT32
    }
  }
  attr {
    key: "value"
    value {
      tensor {
        dtype: DT_INT32
        tensor_shape {
          dim {
            size: 3
          }
        }
        tensor_content: "\004\000\000\000\003\000\000\000\007\000\000\000"
      }
    }
  }
}
node {
  name: "encoder/stack_bidirectional_rnn/cell_0/bidirectional_rnn/fw/fw/TensorArrayUnstack/strided_slice/stack"
  op: "Const"
  input: "^add"
  attr {
    key: "_output_shapes"
    value {
      list {
        shape {
          dim {
            size: 1
          }
        }
      }
    }
  }
  attr {
    key: "dtype"
    value {
      type: DT_INT32
    }
  }
  attr {
    key: "value"
    value {
      tensor {
        dtype: DT_INT32
        tensor_shape {
          dim {
            size: 1
          }
        }
        int_val: 0
      }
    }
  }
}
node {
  name: "encoder/stack_bidirectional_rnn/cell_0/bidirectional_rnn/fw/fw/TensorArrayUnstack/strided_slice/stack_1"
  op: "Const"
  input: "^add"
  attr {
    key: "_output_shapes"
    value {
      list {
        shape {
          dim {
            size: 1
          }
        }
      }
    }
  }
  attr {
    key: "dtype"
    value {
      type: DT_INT32
    }
  }
  attr {
    key: "value"
    value {
      tensor {
        dtype: DT_INT32
        tensor_shape {
          dim {
            size: 1
          }
        }
        int_val: 1
      }
    }
  }
}
node {
  name: "encoder/stack_bidirectional_rnn/cell_0/bidirectional_rnn/fw/fw/TensorArrayUnstack/strided_slice/stack_2"
  op: "Const"
  input: "^add"
  attr {
    key: "_output_shapes"
    value {
      list {
        shape {
          dim {
            size: 1
          }
        }
      }
    }
  }
  attr {
    key: "dtype"
    value {
      type: DT_INT32
    }
  }
  attr {
    key: "value"
    value {
      tensor {
        dtype: DT_INT32
        tensor_shape {
          dim {
            size: 1
          }
        }
        int_val: 1
      }
    }
  }
}
node {
  name: "encoder/stack_bidirectional_rnn/cell_0/bidirectional_rnn/fw/fw/TensorArrayUnstack/strided_slice"
  op: "StridedSlice"
  input: "encoder/stack_bidirectional_rnn/cell_0/bidirectional_rnn/fw/fw/TensorArrayUnstack/Shape"
  input: "encoder/stack_bidirectional_rnn/cell_0/bidirectional_rnn/fw/fw/TensorArrayUnstack/strided_slice/stack"
  input: "encoder/stack_bidirectional_rnn/cell_0/bidirectional_rnn/fw/fw/TensorArrayUnstack/strided_slice/stack_1"
  input: "encoder/stack_bidirectional_rnn/cell_0/bidirectional_rnn/fw/fw/TensorArrayUnstack/strided_slice/stack_2"
  attr {
    key: "Index"
    value {
      type: DT_INT32
    }
  }
  attr {
    key: "T"
    value {
      type: DT_INT32
    }
  }
  attr {
    key: "_output_shapes"
    value {
      list {
        shape {
        }
      }
    }
  }
  attr {
    key: "begin_mask"
    value {
      i: 0
    }
  }
  attr {
    key: "ellipsis_mask"
    value {
      i: 0
    }
  }
  attr {
    key: "end_mask"
    value {
      i: 0
    }
  }
  attr {
    key: "new_axis_mask"
    value {
      i: 0
    }
  }
  attr {
    key: "shrink_axis_mask"
    value {
      i: 1
    }
  }
}
node {
  name: "encoder/stack_bidirectional_rnn/cell_0/bidirectional_rnn/fw/fw/TensorArrayUnstack/range/start"
  op: "Const"
  input: "^add"
  attr {
    key: "_output_shapes"
    value {
      list {
        shape {
        }
      }
    }
  }
  attr {
    key: "dtype"
    value {
      type: DT_INT32
    }
  }
  attr {
    key: "value"
    value {
      tensor {
        dtype: DT_INT32
        tensor_shape {
        }
        int_val: 0
      }
    }
  }
}
node {
  name: "encoder/stack_bidirectional_rnn/cell_0/bidirectional_rnn/fw/fw/TensorArrayUnstack/range/delta"
  op: "Const"
  input: "^add"
  attr {
    key: "_output_shapes"
    value {
      list {
        shape {
        }
      }
    }
  }
  attr {
    key: "dtype"
    value {
      type: DT_INT32
    }
  }
  attr {
    key: "value"
    value {
      tensor {
        dtype: DT_INT32
        tensor_shape {
        }
        int_val: 1
      }
    }
  }
}
node {
  name: "encoder/stack_bidirectional_rnn/cell_0/bidirectional_rnn/fw/fw/TensorArrayUnstack/range"
  op: "Range"
  input: "encoder/stack_bidirectional_rnn/cell_0/bidirectional_rnn/fw/fw/TensorArrayUnstack/range/start"
  input: "encoder/stack_bidirectional_rnn/cell_0/bidirectional_rnn/fw/fw/TensorArrayUnstack/strided_slice"
  input: "encoder/stack_bidirectional_rnn/cell_0/bidirectional_rnn/fw/fw/TensorArrayUnstack/range/delta"
  attr {
    key: "Tidx"
    value {
      type: DT_INT32
    }
  }
  attr {
    key: "_output_shapes"
    value {
      list {
        shape {
          dim {
            size: -1
          }
        }
      }
    }
  }
}
node {
  name: "encoder/stack_bidirectional_rnn/cell_0/bidirectional_rnn/fw/fw/TensorArrayUnstack/TensorArrayScatter/TensorArrayScatterV3"
  op: "TensorArrayScatterV3"
  input: "encoder/stack_bidirectional_rnn/cell_0/bidirectional_rnn/fw/fw/TensorArray_1"
  input: "encoder/stack_bidirectional_rnn/cell_0/bidirectional_rnn/fw/fw/TensorArrayUnstack/range"
  input: "encoder/stack_bidirectional_rnn/cell_0/bidirectional_rnn/fw/transpose"
  input: "encoder/stack_bidirectional_rnn/cell_0/bidirectional_rnn/fw/fw/TensorArray_1:1"
  attr {
    key: "T"
    value {
      type: DT_FLOAT
    }
  }
  attr {
    key: "_class"
    value {
      list {
        s: "loc:@encoder/stack_bidirectional_rnn/cell_0/bidirectional_rnn/fw/transpose"
      }
    }
  }
  attr {
    key: "_output_shapes"
    value {
      list {
        shape {
        }
      }
    }
  }
}
node {
  name: "encoder/stack_bidirectional_rnn/cell_0/bidirectional_rnn/fw/fw/while/Enter"
  op: "Enter"
  input: "encoder/stack_bidirectional_rnn/cell_0/bidirectional_rnn/fw/fw/time"
  attr {
    key: "T"
    value {
      type: DT_INT32
    }
  }
  attr {
    key: "_output_shapes"
    value {
      list {
        shape {
        }
      }
    }
  }
  attr {
    key: "frame_name"
    value {
      s: "encoder/stack_bidirectional_rnn/cell_0/bidirectional_rnn/fw/fw/while/while_context"
    }
  }
  attr {
    key: "is_constant"
    value {
      b: false
    }
  }
  attr {
    key: "parallel_iterations"
    value {
      i: 32
    }
  }
}
node {
  name: "encoder/stack_bidirectional_rnn/cell_0/bidirectional_rnn/fw/fw/while/Enter_1"
  op: "Enter"
  input: "encoder/stack_bidirectional_rnn/cell_0/bidirectional_rnn/fw/fw/TensorArray:1"
  attr {
    key: "T"
    value {
      type: DT_FLOAT
    }
  }
  attr {
    key: "_output_shapes"
    value {
      list {
        shape {
        }
      }
    }
  }
  attr {
    key: "frame_name"
    value {
      s: "encoder/stack_bidirectional_rnn/cell_0/bidirectional_rnn/fw/fw/while/while_context"
    }
  }
  attr {
    key: "is_constant"
    value {
      b: false
    }
  }
  attr {
    key: "parallel_iterations"
    value {
      i: 32
    }
  }
}
node {
  name: "encoder/stack_bidirectional_rnn/cell_0/bidirectional_rnn/fw/fw/while/Enter_2"
  op: "Enter"
  input: "encoder/stack_bidirectional_rnn/cell_0/bidirectional_rnn/fw/fw/BasicLSTMCellZeroState/zeros"
  attr {
    key: "T"
    value {
      type: DT_FLOAT
    }
  }
  attr {
    key: "_output_shapes"
    value {
      list {
        shape {
          dim {
            size: 3
          }
          dim {
            size: 7
          }
        }
      }
    }
  }
  attr {
    key: "frame_name"
    value {
      s: "encoder/stack_bidirectional_rnn/cell_0/bidirectional_rnn/fw/fw/while/while_context"
    }
  }
  attr {
    key: "is_constant"
    value {
      b: false
    }
  }
  attr {
    key: "parallel_iterations"
    value {
      i: 32
    }
  }
}
node {
  name: "encoder/stack_bidirectional_rnn/cell_0/bidirectional_rnn/fw/fw/while/Enter_3"
  op: "Enter"
  input: "encoder/stack_bidirectional_rnn/cell_0/bidirectional_rnn/fw/fw/BasicLSTMCellZeroState/zeros_1"
  attr {
    key: "T"
    value {
      type: DT_FLOAT
    }
  }
  attr {
    key: "_output_shapes"
    value {
      list {
        shape {
          dim {
            size: 3
          }
          dim {
            size: 7
          }
        }
      }
    }
  }
  attr {
    key: "frame_name"
    value {
      s: "encoder/stack_bidirectional_rnn/cell_0/bidirectional_rnn/fw/fw/while/while_context"
    }
  }
  attr {
    key: "is_constant"
    value {
      b: false
    }
  }
  attr {
    key: "parallel_iterations"
    value {
      i: 32
    }
  }
}
node {
  name: "encoder/stack_bidirectional_rnn/cell_0/bidirectional_rnn/fw/fw/while/Merge"
  op: "Merge"
  input: "encoder/stack_bidirectional_rnn/cell_0/bidirectional_rnn/fw/fw/while/Enter"
  input: "encoder/stack_bidirectional_rnn/cell_0/bidirectional_rnn/fw/fw/while/NextIteration"
  attr {
    key: "N"
    value {
      i: 2
    }
  }
  attr {
    key: "T"
    value {
      type: DT_INT32
    }
  }
  attr {
    key: "_output_shapes"
    value {
      list {
        shape {
        }
        shape {
        }
      }
    }
  }
}
node {
  name: "encoder/stack_bidirectional_rnn/cell_0/bidirectional_rnn/fw/fw/while/Merge_1"
  op: "Merge"
  input: "encoder/stack_bidirectional_rnn/cell_0/bidirectional_rnn/fw/fw/while/Enter_1"
  input: "encoder/stack_bidirectional_rnn/cell_0/bidirectional_rnn/fw/fw/while/NextIteration_1"
  attr {
    key: "N"
    value {
      i: 2
    }
  }
  attr {
    key: "T"
    value {
      type: DT_FLOAT
    }
  }
  attr {
    key: "_output_shapes"
    value {
      list {
        shape {
        }
        shape {
        }
      }
    }
  }
}
node {
  name: "encoder/stack_bidirectional_rnn/cell_0/bidirectional_rnn/fw/fw/while/Merge_2"
  op: "Merge"
  input: "encoder/stack_bidirectional_rnn/cell_0/bidirectional_rnn/fw/fw/while/Enter_2"
  input: "encoder/stack_bidirectional_rnn/cell_0/bidirectional_rnn/fw/fw/while/NextIteration_2"
  attr {
    key: "N"
    value {
      i: 2
    }
  }
  attr {
    key: "T"
    value {
      type: DT_FLOAT
    }
  }
  attr {
    key: "_output_shapes"
    value {
      list {
        shape {
          dim {
            size: 3
          }
          dim {
            size: 7
          }
        }
        shape {
        }
      }
    }
  }
}
node {
  name: "encoder/stack_bidirectional_rnn/cell_0/bidirectional_rnn/fw/fw/while/Merge_3"
  op: "Merge"
  input: "encoder/stack_bidirectional_rnn/cell_0/bidirectional_rnn/fw/fw/while/Enter_3"
  input: "encoder/stack_bidirectional_rnn/cell_0/bidirectional_rnn/fw/fw/while/NextIteration_3"
  attr {
    key: "N"
    value {
      i: 2
    }
  }
  attr {
    key: "T"
    value {
      type: DT_FLOAT
    }
  }
  attr {
    key: "_output_shapes"
    value {
      list {
        shape {
          dim {
            size: 3
          }
          dim {
            size: 7
          }
        }
        shape {
        }
      }
    }
  }
}
node {
  name: "encoder/stack_bidirectional_rnn/cell_0/bidirectional_rnn/fw/fw/while/Less/Enter"
  op: "Enter"
  input: "encoder/stack_bidirectional_rnn/cell_0/bidirectional_rnn/fw/fw/strided_slice"
  attr {
    key: "T"
    value {
      type: DT_INT32
    }
  }
  attr {
    key: "_output_shapes"
    value {
      list {
        shape {
        }
      }
    }
  }
  attr {
    key: "frame_name"
    value {
      s: "encoder/stack_bidirectional_rnn/cell_0/bidirectional_rnn/fw/fw/while/while_context"
    }
  }
  attr {
    key: "is_constant"
    value {
      b: true
    }
  }
  attr {
    key: "parallel_iterations"
    value {
      i: 32
    }
  }
}
node {
  name: "encoder/stack_bidirectional_rnn/cell_0/bidirectional_rnn/fw/fw/while/Less"
  op: "Less"
  input: "encoder/stack_bidirectional_rnn/cell_0/bidirectional_rnn/fw/fw/while/Merge"
  input: "encoder/stack_bidirectional_rnn/cell_0/bidirectional_rnn/fw/fw/while/Less/Enter"
  attr {
    key: "T"
    value {
      type: DT_INT32
    }
  }
  attr {
    key: "_output_shapes"
    value {
      list {
        shape {
        }
      }
    }
  }
}
node {
  name: "encoder/stack_bidirectional_rnn/cell_0/bidirectional_rnn/fw/fw/while/LoopCond"
  op: "LoopCond"
  input: "encoder/stack_bidirectional_rnn/cell_0/bidirectional_rnn/fw/fw/while/Less"
  attr {
    key: "_output_shapes"
    value {
      list {
        shape {
        }
      }
    }
  }
}
node {
  name: "encoder/stack_bidirectional_rnn/cell_0/bidirectional_rnn/fw/fw/while/Switch"
  op: "Switch"
  input: "encoder/stack_bidirectional_rnn/cell_0/bidirectional_rnn/fw/fw/while/Merge"
  input: "encoder/stack_bidirectional_rnn/cell_0/bidirectional_rnn/fw/fw/while/LoopCond"
  attr {
    key: "T"
    value {
      type: DT_INT32
    }
  }
  attr {
    key: "_class"
    value {
      list {
        s: "loc:@encoder/stack_bidirectional_rnn/cell_0/bidirectional_rnn/fw/fw/while/Merge"
      }
    }
  }
  attr {
    key: "_output_shapes"
    value {
      list {
        shape {
        }
        shape {
        }
      }
    }
  }
}
node {
  name: "encoder/stack_bidirectional_rnn/cell_0/bidirectional_rnn/fw/fw/while/Switch_1"
  op: "Switch"
  input: "encoder/stack_bidirectional_rnn/cell_0/bidirectional_rnn/fw/fw/while/Merge_1"
  input: "encoder/stack_bidirectional_rnn/cell_0/bidirectional_rnn/fw/fw/while/LoopCond"
  attr {
    key: "T"
    value {
      type: DT_FLOAT
    }
  }
  attr {
    key: "_class"
    value {
      list {
        s: "loc:@encoder/stack_bidirectional_rnn/cell_0/bidirectional_rnn/fw/fw/while/Merge_1"
      }
    }
  }
  attr {
    key: "_output_shapes"
    value {
      list {
        shape {
        }
        shape {
        }
      }
    }
  }
}
node {
  name: "encoder/stack_bidirectional_rnn/cell_0/bidirectional_rnn/fw/fw/while/Switch_2"
  op: "Switch"
  input: "encoder/stack_bidirectional_rnn/cell_0/bidirectional_rnn/fw/fw/while/Merge_2"
  input: "encoder/stack_bidirectional_rnn/cell_0/bidirectional_rnn/fw/fw/while/LoopCond"
  attr {
    key: "T"
    value {
      type: DT_FLOAT
    }
  }
  attr {
    key: "_class"
    value {
      list {
        s: "loc:@encoder/stack_bidirectional_rnn/cell_0/bidirectional_rnn/fw/fw/while/Merge_2"
      }
    }
  }
  attr {
    key: "_output_shapes"
    value {
      list {
        shape {
          dim {
            size: 3
          }
          dim {
            size: 7
          }
        }
        shape {
          dim {
            size: 3
          }
          dim {
            size: 7
          }
        }
      }
    }
  }
}
node {
  name: "encoder/stack_bidirectional_rnn/cell_0/bidirectional_rnn/fw/fw/while/Switch_3"
  op: "Switch"
  input: "encoder/stack_bidirectional_rnn/cell_0/bidirectional_rnn/fw/fw/while/Merge_3"
  input: "encoder/stack_bidirectional_rnn/cell_0/bidirectional_rnn/fw/fw/while/LoopCond"
  attr {
    key: "T"
    value {
      type: DT_FLOAT
    }
  }
  attr {
    key: "_class"
    value {
      list {
        s: "loc:@encoder/stack_bidirectional_rnn/cell_0/bidirectional_rnn/fw/fw/while/Merge_3"
      }
    }
  }
  attr {
    key: "_output_shapes"
    value {
      list {
        shape {
          dim {
            size: 3
          }
          dim {
            size: 7
          }
        }
        shape {
          dim {
            size: 3
          }
          dim {
            size: 7
          }
        }
      }
    }
  }
}
node {
  name: "encoder/stack_bidirectional_rnn/cell_0/bidirectional_rnn/fw/fw/while/Identity"
  op: "Identity"
  input: "encoder/stack_bidirectional_rnn/cell_0/bidirectional_rnn/fw/fw/while/Switch:1"
  attr {
    key: "T"
    value {
      type: DT_INT32
    }
  }
  attr {
    key: "_output_shapes"
    value {
      list {
        shape {
        }
      }
    }
  }
}
node {
  name: "encoder/stack_bidirectional_rnn/cell_0/bidirectional_rnn/fw/fw/while/Identity_1"
  op: "Identity"
  input: "encoder/stack_bidirectional_rnn/cell_0/bidirectional_rnn/fw/fw/while/Switch_1:1"
  attr {
    key: "T"
    value {
      type: DT_FLOAT
    }
  }
  attr {
    key: "_output_shapes"
    value {
      list {
        shape {
        }
      }
    }
  }
}
node {
  name: "encoder/stack_bidirectional_rnn/cell_0/bidirectional_rnn/fw/fw/while/Identity_2"
  op: "Identity"
  input: "encoder/stack_bidirectional_rnn/cell_0/bidirectional_rnn/fw/fw/while/Switch_2:1"
  attr {
    key: "T"
    value {
      type: DT_FLOAT
    }
  }
  attr {
    key: "_output_shapes"
    value {
      list {
        shape {
          dim {
            size: 3
          }
          dim {
            size: 7
          }
        }
      }
    }
  }
}
node {
  name: "encoder/stack_bidirectional_rnn/cell_0/bidirectional_rnn/fw/fw/while/Identity_3"
  op: "Identity"
  input: "encoder/stack_bidirectional_rnn/cell_0/bidirectional_rnn/fw/fw/while/Switch_3:1"
  attr {
    key: "T"
    value {
      type: DT_FLOAT
    }
  }
  attr {
    key: "_output_shapes"
    value {
      list {
        shape {
          dim {
            size: 3
          }
          dim {
            size: 7
          }
        }
      }
    }
  }
}
node {
  name: "encoder/stack_bidirectional_rnn/cell_0/bidirectional_rnn/fw/fw/while/TensorArrayReadV3/Enter"
  op: "Enter"
  input: "encoder/stack_bidirectional_rnn/cell_0/bidirectional_rnn/fw/fw/TensorArray_1"
  attr {
    key: "T"
    value {
      type: DT_RESOURCE
    }
  }
  attr {
    key: "_output_shapes"
    value {
      list {
        shape {
          dim {
            size: 2
          }
        }
      }
    }
  }
  attr {
    key: "frame_name"
    value {
      s: "encoder/stack_bidirectional_rnn/cell_0/bidirectional_rnn/fw/fw/while/while_context"
    }
  }
  attr {
    key: "is_constant"
    value {
      b: true
    }
  }
  attr {
    key: "parallel_iterations"
    value {
      i: 32
    }
  }
}
node {
  name: "encoder/stack_bidirectional_rnn/cell_0/bidirectional_rnn/fw/fw/while/TensorArrayReadV3/Enter_1"
  op: "Enter"
  input: "encoder/stack_bidirectional_rnn/cell_0/bidirectional_rnn/fw/fw/TensorArrayUnstack/TensorArrayScatter/TensorArrayScatterV3"
  attr {
    key: "T"
    value {
      type: DT_FLOAT
    }
  }
  attr {
    key: "_output_shapes"
    value {
      list {
        shape {
        }
      }
    }
  }
  attr {
    key: "frame_name"
    value {
      s: "encoder/stack_bidirectional_rnn/cell_0/bidirectional_rnn/fw/fw/while/while_context"
    }
  }
  attr {
    key: "is_constant"
    value {
      b: true
    }
  }
  attr {
    key: "parallel_iterations"
    value {
      i: 32
    }
  }
}
node {
  name: "encoder/stack_bidirectional_rnn/cell_0/bidirectional_rnn/fw/fw/while/TensorArrayReadV3"
  op: "TensorArrayReadV3"
  input: "encoder/stack_bidirectional_rnn/cell_0/bidirectional_rnn/fw/fw/while/TensorArrayReadV3/Enter"
  input: "encoder/stack_bidirectional_rnn/cell_0/bidirectional_rnn/fw/fw/while/Identity"
  input: "encoder/stack_bidirectional_rnn/cell_0/bidirectional_rnn/fw/fw/while/TensorArrayReadV3/Enter_1"
  attr {
    key: "_output_shapes"
    value {
      list {
        shape {
          dim {
            size: 3
          }
          dim {
            size: 7
          }
        }
      }
    }
  }
  attr {
    key: "dtype"
    value {
      type: DT_FLOAT
    }
  }
}
node {
  name: "encoder/stack_bidirectional_rnn/cell_0/bidirectional_rnn/fw/basic_lstm_cell/kernel/Initializer/random_uniform/shape"
  op: "Const"
  attr {
    key: "_class"
    value {
      list {
        s: "loc:@encoder/stack_bidirectional_rnn/cell_0/bidirectional_rnn/fw/basic_lstm_cell/kernel"
      }
    }
  }
  attr {
    key: "_output_shapes"
    value {
      list {
        shape {
          dim {
            size: 2
          }
        }
      }
    }
  }
  attr {
    key: "dtype"
    value {
      type: DT_INT32
    }
  }
  attr {
    key: "value"
    value {
      tensor {
        dtype: DT_INT32
        tensor_shape {
          dim {
            size: 2
          }
        }
        tensor_content: "\016\000\000\000\034\000\000\000"
      }
    }
  }
}
node {
  name: "encoder/stack_bidirectional_rnn/cell_0/bidirectional_rnn/fw/basic_lstm_cell/kernel/Initializer/random_uniform/min"
  op: "Const"
  attr {
    key: "_class"
    value {
      list {
        s: "loc:@encoder/stack_bidirectional_rnn/cell_0/bidirectional_rnn/fw/basic_lstm_cell/kernel"
      }
    }
  }
  attr {
    key: "_output_shapes"
    value {
      list {
        shape {
        }
      }
    }
  }
  attr {
    key: "dtype"
    value {
      type: DT_FLOAT
    }
  }
  attr {
    key: "value"
    value {
      tensor {
        dtype: DT_FLOAT
        tensor_shape {
        }
        float_val: -0.37796446681022644
      }
    }
  }
}
node {
  name: "encoder/stack_bidirectional_rnn/cell_0/bidirectional_rnn/fw/basic_lstm_cell/kernel/Initializer/random_uniform/max"
  op: "Const"
  attr {
    key: "_class"
    value {
      list {
        s: "loc:@encoder/stack_bidirectional_rnn/cell_0/bidirectional_rnn/fw/basic_lstm_cell/kernel"
      }
    }
  }
  attr {
    key: "_output_shapes"
    value {
      list {
        shape {
        }
      }
    }
  }
  attr {
    key: "dtype"
    value {
      type: DT_FLOAT
    }
  }
  attr {
    key: "value"
    value {
      tensor {
        dtype: DT_FLOAT
        tensor_shape {
        }
        float_val: 0.37796446681022644
      }
    }
  }
}
node {
  name: "encoder/stack_bidirectional_rnn/cell_0/bidirectional_rnn/fw/basic_lstm_cell/kernel/Initializer/random_uniform/RandomUniform"
  op: "RandomUniform"
  input: "encoder/stack_bidirectional_rnn/cell_0/bidirectional_rnn/fw/basic_lstm_cell/kernel/Initializer/random_uniform/shape"
  attr {
    key: "T"
    value {
      type: DT_INT32
    }
  }
  attr {
    key: "_class"
    value {
      list {
        s: "loc:@encoder/stack_bidirectional_rnn/cell_0/bidirectional_rnn/fw/basic_lstm_cell/kernel"
      }
    }
  }
  attr {
    key: "_output_shapes"
    value {
      list {
        shape {
          dim {
            size: 14
          }
          dim {
            size: 28
          }
        }
      }
    }
  }
  attr {
    key: "dtype"
    value {
      type: DT_FLOAT
    }
  }
  attr {
    key: "seed"
    value {
      i: 0
    }
  }
  attr {
    key: "seed2"
    value {
      i: 0
    }
  }
}
node {
  name: "encoder/stack_bidirectional_rnn/cell_0/bidirectional_rnn/fw/basic_lstm_cell/kernel/Initializer/random_uniform/sub"
  op: "Sub"
  input: "encoder/stack_bidirectional_rnn/cell_0/bidirectional_rnn/fw/basic_lstm_cell/kernel/Initializer/random_uniform/max"
  input: "encoder/stack_bidirectional_rnn/cell_0/bidirectional_rnn/fw/basic_lstm_cell/kernel/Initializer/random_uniform/min"
  attr {
    key: "T"
    value {
      type: DT_FLOAT
    }
  }
  attr {
    key: "_class"
    value {
      list {
        s: "loc:@encoder/stack_bidirectional_rnn/cell_0/bidirectional_rnn/fw/basic_lstm_cell/kernel"
      }
    }
  }
  attr {
    key: "_output_shapes"
    value {
      list {
        shape {
        }
      }
    }
  }
}
node {
  name: "encoder/stack_bidirectional_rnn/cell_0/bidirectional_rnn/fw/basic_lstm_cell/kernel/Initializer/random_uniform/mul"
  op: "Mul"
  input: "encoder/stack_bidirectional_rnn/cell_0/bidirectional_rnn/fw/basic_lstm_cell/kernel/Initializer/random_uniform/RandomUniform"
  input: "encoder/stack_bidirectional_rnn/cell_0/bidirectional_rnn/fw/basic_lstm_cell/kernel/Initializer/random_uniform/sub"
  attr {
    key: "T"
    value {
      type: DT_FLOAT
    }
  }
  attr {
    key: "_class"
    value {
      list {
        s: "loc:@encoder/stack_bidirectional_rnn/cell_0/bidirectional_rnn/fw/basic_lstm_cell/kernel"
      }
    }
  }
  attr {
    key: "_output_shapes"
    value {
      list {
        shape {
          dim {
            size: 14
          }
          dim {
            size: 28
          }
        }
      }
    }
  }
}
node {
  name: "encoder/stack_bidirectional_rnn/cell_0/bidirectional_rnn/fw/basic_lstm_cell/kernel/Initializer/random_uniform"
  op: "Add"
  input: "encoder/stack_bidirectional_rnn/cell_0/bidirectional_rnn/fw/basic_lstm_cell/kernel/Initializer/random_uniform/mul"
  input: "encoder/stack_bidirectional_rnn/cell_0/bidirectional_rnn/fw/basic_lstm_cell/kernel/Initializer/random_uniform/min"
  attr {
    key: "T"
    value {
      type: DT_FLOAT
    }
  }
  attr {
    key: "_class"
    value {
      list {
        s: "loc:@encoder/stack_bidirectional_rnn/cell_0/bidirectional_rnn/fw/basic_lstm_cell/kernel"
      }
    }
  }
  attr {
    key: "_output_shapes"
    value {
      list {
        shape {
          dim {
            size: 14
          }
          dim {
            size: 28
          }
        }
      }
    }
  }
}
node {
  name: "encoder/stack_bidirectional_rnn/cell_0/bidirectional_rnn/fw/basic_lstm_cell/kernel"
  op: "VariableV2"
  attr {
    key: "_class"
    value {
      list {
        s: "loc:@encoder/stack_bidirectional_rnn/cell_0/bidirectional_rnn/fw/basic_lstm_cell/kernel"
      }
    }
  }
  attr {
    key: "_output_shapes"
    value {
      list {
        shape {
          dim {
            size: 14
          }
          dim {
            size: 28
          }
        }
      }
    }
  }
  attr {
    key: "container"
    value {
      s: ""
    }
  }
  attr {
    key: "dtype"
    value {
      type: DT_FLOAT
    }
  }
  attr {
    key: "shape"
    value {
      shape {
        dim {
          size: 14
        }
        dim {
          size: 28
        }
      }
    }
  }
  attr {
    key: "shared_name"
    value {
      s: ""
    }
  }
}
node {
  name: "encoder/stack_bidirectional_rnn/cell_0/bidirectional_rnn/fw/basic_lstm_cell/kernel/Assign"
  op: "Assign"
  input: "encoder/stack_bidirectional_rnn/cell_0/bidirectional_rnn/fw/basic_lstm_cell/kernel"
  input: "encoder/stack_bidirectional_rnn/cell_0/bidirectional_rnn/fw/basic_lstm_cell/kernel/Initializer/random_uniform"
  attr {
    key: "T"
    value {
      type: DT_FLOAT
    }
  }
  attr {
    key: "_class"
    value {
      list {
        s: "loc:@encoder/stack_bidirectional_rnn/cell_0/bidirectional_rnn/fw/basic_lstm_cell/kernel"
      }
    }
  }
  attr {
    key: "_output_shapes"
    value {
      list {
        shape {
          dim {
            size: 14
          }
          dim {
            size: 28
          }
        }
      }
    }
  }
  attr {
    key: "use_locking"
    value {
      b: true
    }
  }
  attr {
    key: "validate_shape"
    value {
      b: true
    }
  }
}
node {
  name: "encoder/stack_bidirectional_rnn/cell_0/bidirectional_rnn/fw/basic_lstm_cell/kernel/read"
  op: "Identity"
  input: "encoder/stack_bidirectional_rnn/cell_0/bidirectional_rnn/fw/basic_lstm_cell/kernel"
  attr {
    key: "T"
    value {
      type: DT_FLOAT
    }
  }
  attr {
    key: "_output_shapes"
    value {
      list {
        shape {
          dim {
            size: 14
          }
          dim {
            size: 28
          }
        }
      }
    }
  }
}
node {
  name: "encoder/stack_bidirectional_rnn/cell_0/bidirectional_rnn/fw/basic_lstm_cell/bias/Initializer/Const"
  op: "Const"
  attr {
    key: "_class"
    value {
      list {
        s: "loc:@encoder/stack_bidirectional_rnn/cell_0/bidirectional_rnn/fw/basic_lstm_cell/bias"
      }
    }
  }
  attr {
    key: "_output_shapes"
    value {
      list {
        shape {
          dim {
            size: 28
          }
        }
      }
    }
  }
  attr {
    key: "dtype"
    value {
      type: DT_FLOAT
    }
  }
  attr {
    key: "value"
    value {
      tensor {
        dtype: DT_FLOAT
        tensor_shape {
          dim {
            size: 28
          }
        }
        float_val: 0.0
      }
    }
  }
}
node {
  name: "encoder/stack_bidirectional_rnn/cell_0/bidirectional_rnn/fw/basic_lstm_cell/bias"
  op: "VariableV2"
  attr {
    key: "_class"
    value {
      list {
        s: "loc:@encoder/stack_bidirectional_rnn/cell_0/bidirectional_rnn/fw/basic_lstm_cell/bias"
      }
    }
  }
  attr {
    key: "_output_shapes"
    value {
      list {
        shape {
          dim {
            size: 28
          }
        }
      }
    }
  }
  attr {
    key: "container"
    value {
      s: ""
    }
  }
  attr {
    key: "dtype"
    value {
      type: DT_FLOAT
    }
  }
  attr {
    key: "shape"
    value {
      shape {
        dim {
          size: 28
        }
      }
    }
  }
  attr {
    key: "shared_name"
    value {
      s: ""
    }
  }
}
node {
  name: "encoder/stack_bidirectional_rnn/cell_0/bidirectional_rnn/fw/basic_lstm_cell/bias/Assign"
  op: "Assign"
  input: "encoder/stack_bidirectional_rnn/cell_0/bidirectional_rnn/fw/basic_lstm_cell/bias"
  input: "encoder/stack_bidirectional_rnn/cell_0/bidirectional_rnn/fw/basic_lstm_cell/bias/Initializer/Const"
  attr {
    key: "T"
    value {
      type: DT_FLOAT
    }
  }
  attr {
    key: "_class"
    value {
      list {
        s: "loc:@encoder/stack_bidirectional_rnn/cell_0/bidirectional_rnn/fw/basic_lstm_cell/bias"
      }
    }
  }
  attr {
    key: "_output_shapes"
    value {
      list {
        shape {
          dim {
            size: 28
          }
        }
      }
    }
  }
  attr {
    key: "use_locking"
    value {
      b: true
    }
  }
  attr {
    key: "validate_shape"
    value {
      b: true
    }
  }
}
node {
  name: "encoder/stack_bidirectional_rnn/cell_0/bidirectional_rnn/fw/basic_lstm_cell/bias/read"
  op: "Identity"
  input: "encoder/stack_bidirectional_rnn/cell_0/bidirectional_rnn/fw/basic_lstm_cell/bias"
  attr {
    key: "T"
    value {
      type: DT_FLOAT
    }
  }
  attr {
    key: "_output_shapes"
    value {
      list {
        shape {
          dim {
            size: 28
          }
        }
      }
    }
  }
}
node {
  name: "encoder/stack_bidirectional_rnn/cell_0/bidirectional_rnn/fw/fw/while/fw/basic_lstm_cell/concat/axis"
  op: "Const"
  input: "^encoder/stack_bidirectional_rnn/cell_0/bidirectional_rnn/fw/fw/while/Identity"
  attr {
    key: "_output_shapes"
    value {
      list {
        shape {
        }
      }
    }
  }
  attr {
    key: "dtype"
    value {
      type: DT_INT32
    }
  }
  attr {
    key: "value"
    value {
      tensor {
        dtype: DT_INT32
        tensor_shape {
        }
        int_val: 1
      }
    }
  }
}
node {
  name: "encoder/stack_bidirectional_rnn/cell_0/bidirectional_rnn/fw/fw/while/fw/basic_lstm_cell/concat"
  op: "ConcatV2"
  input: "encoder/stack_bidirectional_rnn/cell_0/bidirectional_rnn/fw/fw/while/TensorArrayReadV3"
  input: "encoder/stack_bidirectional_rnn/cell_0/bidirectional_rnn/fw/fw/while/Identity_3"
  input: "encoder/stack_bidirectional_rnn/cell_0/bidirectional_rnn/fw/fw/while/fw/basic_lstm_cell/concat/axis"
  attr {
    key: "N"
    value {
      i: 2
    }
  }
  attr {
    key: "T"
    value {
      type: DT_FLOAT
    }
  }
  attr {
    key: "Tidx"
    value {
      type: DT_INT32
    }
  }
  attr {
    key: "_output_shapes"
    value {
      list {
        shape {
          dim {
            size: 3
          }
          dim {
            size: 14
          }
        }
      }
    }
  }
}
node {
  name: "encoder/stack_bidirectional_rnn/cell_0/bidirectional_rnn/fw/fw/while/fw/basic_lstm_cell/MatMul/Enter"
  op: "Enter"
  input: "encoder/stack_bidirectional_rnn/cell_0/bidirectional_rnn/fw/basic_lstm_cell/kernel/read"
  input: "^add"
  attr {
    key: "T"
    value {
      type: DT_FLOAT
    }
  }
  attr {
    key: "_output_shapes"
    value {
      list {
        shape {
          dim {
            size: 14
          }
          dim {
            size: 28
          }
        }
      }
    }
  }
  attr {
    key: "frame_name"
    value {
      s: "encoder/stack_bidirectional_rnn/cell_0/bidirectional_rnn/fw/fw/while/while_context"
    }
  }
  attr {
    key: "is_constant"
    value {
      b: true
    }
  }
  attr {
    key: "parallel_iterations"
    value {
      i: 32
    }
  }
}
node {
  name: "encoder/stack_bidirectional_rnn/cell_0/bidirectional_rnn/fw/fw/while/fw/basic_lstm_cell/MatMul"
  op: "MatMul"
  input: "encoder/stack_bidirectional_rnn/cell_0/bidirectional_rnn/fw/fw/while/fw/basic_lstm_cell/concat"
  input: "encoder/stack_bidirectional_rnn/cell_0/bidirectional_rnn/fw/fw/while/fw/basic_lstm_cell/MatMul/Enter"
  attr {
    key: "T"
    value {
      type: DT_FLOAT
    }
  }
  attr {
    key: "_output_shapes"
    value {
      list {
        shape {
          dim {
            size: 3
          }
          dim {
            size: 28
          }
        }
      }
    }
  }
  attr {
    key: "transpose_a"
    value {
      b: false
    }
  }
  attr {
    key: "transpose_b"
    value {
      b: false
    }
  }
}
node {
  name: "encoder/stack_bidirectional_rnn/cell_0/bidirectional_rnn/fw/fw/while/fw/basic_lstm_cell/BiasAdd/Enter"
  op: "Enter"
  input: "encoder/stack_bidirectional_rnn/cell_0/bidirectional_rnn/fw/basic_lstm_cell/bias/read"
  input: "^add"
  attr {
    key: "T"
    value {
      type: DT_FLOAT
    }
  }
  attr {
    key: "_output_shapes"
    value {
      list {
        shape {
          dim {
            size: 28
          }
        }
      }
    }
  }
  attr {
    key: "frame_name"
    value {
      s: "encoder/stack_bidirectional_rnn/cell_0/bidirectional_rnn/fw/fw/while/while_context"
    }
  }
  attr {
    key: "is_constant"
    value {
      b: true
    }
  }
  attr {
    key: "parallel_iterations"
    value {
      i: 32
    }
  }
}
node {
  name: "encoder/stack_bidirectional_rnn/cell_0/bidirectional_rnn/fw/fw/while/fw/basic_lstm_cell/BiasAdd"
  op: "BiasAdd"
  input: "encoder/stack_bidirectional_rnn/cell_0/bidirectional_rnn/fw/fw/while/fw/basic_lstm_cell/MatMul"
  input: "encoder/stack_bidirectional_rnn/cell_0/bidirectional_rnn/fw/fw/while/fw/basic_lstm_cell/BiasAdd/Enter"
  attr {
    key: "T"
    value {
      type: DT_FLOAT
    }
  }
  attr {
    key: "_output_shapes"
    value {
      list {
        shape {
          dim {
            size: 3
          }
          dim {
            size: 28
          }
        }
      }
    }
  }
  attr {
    key: "data_format"
    value {
      s: "NHWC"
    }
  }
}
node {
  name: "encoder/stack_bidirectional_rnn/cell_0/bidirectional_rnn/fw/fw/while/fw/basic_lstm_cell/Const"
  op: "Const"
  input: "^encoder/stack_bidirectional_rnn/cell_0/bidirectional_rnn/fw/fw/while/Identity"
  attr {
    key: "_output_shapes"
    value {
      list {
        shape {
        }
      }
    }
  }
  attr {
    key: "dtype"
    value {
      type: DT_INT32
    }
  }
  attr {
    key: "value"
    value {
      tensor {
        dtype: DT_INT32
        tensor_shape {
        }
        int_val: 4
      }
    }
  }
}
node {
  name: "encoder/stack_bidirectional_rnn/cell_0/bidirectional_rnn/fw/fw/while/fw/basic_lstm_cell/split/split_dim"
  op: "Const"
  input: "^encoder/stack_bidirectional_rnn/cell_0/bidirectional_rnn/fw/fw/while/Identity"
  attr {
    key: "_output_shapes"
    value {
      list {
        shape {
        }
      }
    }
  }
  attr {
    key: "dtype"
    value {
      type: DT_INT32
    }
  }
  attr {
    key: "value"
    value {
      tensor {
        dtype: DT_INT32
        tensor_shape {
        }
        int_val: 1
      }
    }
  }
}
node {
  name: "encoder/stack_bidirectional_rnn/cell_0/bidirectional_rnn/fw/fw/while/fw/basic_lstm_cell/split"
  op: "Split"
  input: "encoder/stack_bidirectional_rnn/cell_0/bidirectional_rnn/fw/fw/while/fw/basic_lstm_cell/split/split_dim"
  input: "encoder/stack_bidirectional_rnn/cell_0/bidirectional_rnn/fw/fw/while/fw/basic_lstm_cell/BiasAdd"
  attr {
    key: "T"
    value {
      type: DT_FLOAT
    }
  }
  attr {
    key: "_output_shapes"
    value {
      list {
        shape {
          dim {
            size: 3
          }
          dim {
            size: 7
          }
        }
        shape {
          dim {
            size: 3
          }
          dim {
            size: 7
          }
        }
        shape {
          dim {
            size: 3
          }
          dim {
            size: 7
          }
        }
        shape {
          dim {
            size: 3
          }
          dim {
            size: 7
          }
        }
      }
    }
  }
  attr {
    key: "num_split"
    value {
      i: 4
    }
  }
}
node {
  name: "encoder/stack_bidirectional_rnn/cell_0/bidirectional_rnn/fw/fw/while/fw/basic_lstm_cell/add/y"
  op: "Const"
  input: "^encoder/stack_bidirectional_rnn/cell_0/bidirectional_rnn/fw/fw/while/Identity"
  attr {
    key: "_output_shapes"
    value {
      list {
        shape {
        }
      }
    }
  }
  attr {
    key: "dtype"
    value {
      type: DT_FLOAT
    }
  }
  attr {
    key: "value"
    value {
      tensor {
        dtype: DT_FLOAT
        tensor_shape {
        }
        float_val: 1.0
      }
    }
  }
}
node {
  name: "encoder/stack_bidirectional_rnn/cell_0/bidirectional_rnn/fw/fw/while/fw/basic_lstm_cell/add"
  op: "Add"
  input: "encoder/stack_bidirectional_rnn/cell_0/bidirectional_rnn/fw/fw/while/fw/basic_lstm_cell/split:2"
  input: "encoder/stack_bidirectional_rnn/cell_0/bidirectional_rnn/fw/fw/while/fw/basic_lstm_cell/add/y"
  attr {
    key: "T"
    value {
      type: DT_FLOAT
    }
  }
  attr {
    key: "_output_shapes"
    value {
      list {
        shape {
          dim {
            size: 3
          }
          dim {
            size: 7
          }
        }
      }
    }
  }
}
node {
  name: "encoder/stack_bidirectional_rnn/cell_0/bidirectional_rnn/fw/fw/while/fw/basic_lstm_cell/Sigmoid"
  op: "Sigmoid"
  input: "encoder/stack_bidirectional_rnn/cell_0/bidirectional_rnn/fw/fw/while/fw/basic_lstm_cell/add"
  attr {
    key: "T"
    value {
      type: DT_FLOAT
    }
  }
  attr {
    key: "_output_shapes"
    value {
      list {
        shape {
          dim {
            size: 3
          }
          dim {
            size: 7
          }
        }
      }
    }
  }
}
node {
  name: "encoder/stack_bidirectional_rnn/cell_0/bidirectional_rnn/fw/fw/while/fw/basic_lstm_cell/mul"
  op: "Mul"
  input: "encoder/stack_bidirectional_rnn/cell_0/bidirectional_rnn/fw/fw/while/Identity_2"
  input: "encoder/stack_bidirectional_rnn/cell_0/bidirectional_rnn/fw/fw/while/fw/basic_lstm_cell/Sigmoid"
  attr {
    key: "T"
    value {
      type: DT_FLOAT
    }
  }
  attr {
    key: "_output_shapes"
    value {
      list {
        shape {
          dim {
            size: 3
          }
          dim {
            size: 7
          }
        }
      }
    }
  }
}
node {
  name: "encoder/stack_bidirectional_rnn/cell_0/bidirectional_rnn/fw/fw/while/fw/basic_lstm_cell/Sigmoid_1"
  op: "Sigmoid"
  input: "encoder/stack_bidirectional_rnn/cell_0/bidirectional_rnn/fw/fw/while/fw/basic_lstm_cell/split"
  attr {
    key: "T"
    value {
      type: DT_FLOAT
    }
  }
  attr {
    key: "_output_shapes"
    value {
      list {
        shape {
          dim {
            size: 3
          }
          dim {
            size: 7
          }
        }
      }
    }
  }
}
node {
  name: "encoder/stack_bidirectional_rnn/cell_0/bidirectional_rnn/fw/fw/while/fw/basic_lstm_cell/Tanh"
  op: "Tanh"
  input: "encoder/stack_bidirectional_rnn/cell_0/bidirectional_rnn/fw/fw/while/fw/basic_lstm_cell/split:1"
  attr {
    key: "T"
    value {
      type: DT_FLOAT
    }
  }
  attr {
    key: "_output_shapes"
    value {
      list {
        shape {
          dim {
            size: 3
          }
          dim {
            size: 7
          }
        }
      }
    }
  }
}
node {
  name: "encoder/stack_bidirectional_rnn/cell_0/bidirectional_rnn/fw/fw/while/fw/basic_lstm_cell/mul_1"
  op: "Mul"
  input: "encoder/stack_bidirectional_rnn/cell_0/bidirectional_rnn/fw/fw/while/fw/basic_lstm_cell/Sigmoid_1"
  input: "encoder/stack_bidirectional_rnn/cell_0/bidirectional_rnn/fw/fw/while/fw/basic_lstm_cell/Tanh"
  attr {
    key: "T"
    value {
      type: DT_FLOAT
    }
  }
  attr {
    key: "_output_shapes"
    value {
      list {
        shape {
          dim {
            size: 3
          }
          dim {
            size: 7
          }
        }
      }
    }
  }
}
node {
  name: "encoder/stack_bidirectional_rnn/cell_0/bidirectional_rnn/fw/fw/while/fw/basic_lstm_cell/add_1"
  op: "Add"
  input: "encoder/stack_bidirectional_rnn/cell_0/bidirectional_rnn/fw/fw/while/fw/basic_lstm_cell/mul"
  input: "encoder/stack_bidirectional_rnn/cell_0/bidirectional_rnn/fw/fw/while/fw/basic_lstm_cell/mul_1"
  attr {
    key: "T"
    value {
      type: DT_FLOAT
    }
  }
  attr {
    key: "_output_shapes"
    value {
      list {
        shape {
          dim {
            size: 3
          }
          dim {
            size: 7
          }
        }
      }
    }
  }
}
node {
  name: "encoder/stack_bidirectional_rnn/cell_0/bidirectional_rnn/fw/fw/while/fw/basic_lstm_cell/Tanh_1"
  op: "Tanh"
  input: "encoder/stack_bidirectional_rnn/cell_0/bidirectional_rnn/fw/fw/while/fw/basic_lstm_cell/add_1"
  attr {
    key: "T"
    value {
      type: DT_FLOAT
    }
  }
  attr {
    key: "_output_shapes"
    value {
      list {
        shape {
          dim {
            size: 3
          }
          dim {
            size: 7
          }
        }
      }
    }
  }
}
node {
  name: "encoder/stack_bidirectional_rnn/cell_0/bidirectional_rnn/fw/fw/while/fw/basic_lstm_cell/Sigmoid_2"
  op: "Sigmoid"
  input: "encoder/stack_bidirectional_rnn/cell_0/bidirectional_rnn/fw/fw/while/fw/basic_lstm_cell/split:3"
  attr {
    key: "T"
    value {
      type: DT_FLOAT
    }
  }
  attr {
    key: "_output_shapes"
    value {
      list {
        shape {
          dim {
            size: 3
          }
          dim {
            size: 7
          }
        }
      }
    }
  }
}
node {
  name: "encoder/stack_bidirectional_rnn/cell_0/bidirectional_rnn/fw/fw/while/fw/basic_lstm_cell/mul_2"
  op: "Mul"
  input: "encoder/stack_bidirectional_rnn/cell_0/bidirectional_rnn/fw/fw/while/fw/basic_lstm_cell/Tanh_1"
  input: "encoder/stack_bidirectional_rnn/cell_0/bidirectional_rnn/fw/fw/while/fw/basic_lstm_cell/Sigmoid_2"
  attr {
    key: "T"
    value {
      type: DT_FLOAT
    }
  }
  attr {
    key: "_output_shapes"
    value {
      list {
        shape {
          dim {
            size: 3
          }
          dim {
            size: 7
          }
        }
      }
    }
  }
}
node {
  name: "encoder/stack_bidirectional_rnn/cell_0/bidirectional_rnn/fw/fw/while/TensorArrayWrite/TensorArrayWriteV3/Enter"
  op: "Enter"
  input: "encoder/stack_bidirectional_rnn/cell_0/bidirectional_rnn/fw/fw/TensorArray"
  attr {
    key: "T"
    value {
      type: DT_RESOURCE
    }
  }
  attr {
    key: "_class"
    value {
      list {
        s: "loc:@encoder/stack_bidirectional_rnn/cell_0/bidirectional_rnn/fw/fw/while/fw/basic_lstm_cell/mul_2"
      }
    }
  }
  attr {
    key: "_output_shapes"
    value {
      list {
        shape {
          dim {
            size: 2
          }
        }
      }
    }
  }
  attr {
    key: "frame_name"
    value {
      s: "encoder/stack_bidirectional_rnn/cell_0/bidirectional_rnn/fw/fw/while/while_context"
    }
  }
  attr {
    key: "is_constant"
    value {
      b: true
    }
  }
  attr {
    key: "parallel_iterations"
    value {
      i: 32
    }
  }
}
node {
  name: "encoder/stack_bidirectional_rnn/cell_0/bidirectional_rnn/fw/fw/while/TensorArrayWrite/TensorArrayWriteV3"
  op: "TensorArrayWriteV3"
  input: "encoder/stack_bidirectional_rnn/cell_0/bidirectional_rnn/fw/fw/while/TensorArrayWrite/TensorArrayWriteV3/Enter"
  input: "encoder/stack_bidirectional_rnn/cell_0/bidirectional_rnn/fw/fw/while/Identity"
  input: "encoder/stack_bidirectional_rnn/cell_0/bidirectional_rnn/fw/fw/while/fw/basic_lstm_cell/mul_2"
  input: "encoder/stack_bidirectional_rnn/cell_0/bidirectional_rnn/fw/fw/while/Identity_1"
  attr {
    key: "T"
    value {
      type: DT_FLOAT
    }
  }
  attr {
    key: "_class"
    value {
      list {
        s: "loc:@encoder/stack_bidirectional_rnn/cell_0/bidirectional_rnn/fw/fw/while/fw/basic_lstm_cell/mul_2"
      }
    }
  }
  attr {
    key: "_output_shapes"
    value {
      list {
        shape {
        }
      }
    }
  }
}
node {
  name: "encoder/stack_bidirectional_rnn/cell_0/bidirectional_rnn/fw/fw/while/add/y"
  op: "Const"
  input: "^encoder/stack_bidirectional_rnn/cell_0/bidirectional_rnn/fw/fw/while/Identity"
  attr {
    key: "_output_shapes"
    value {
      list {
        shape {
        }
      }
    }
  }
  attr {
    key: "dtype"
    value {
      type: DT_INT32
    }
  }
  attr {
    key: "value"
    value {
      tensor {
        dtype: DT_INT32
        tensor_shape {
        }
        int_val: 1
      }
    }
  }
}
node {
  name: "encoder/stack_bidirectional_rnn/cell_0/bidirectional_rnn/fw/fw/while/add"
  op: "Add"
  input: "encoder/stack_bidirectional_rnn/cell_0/bidirectional_rnn/fw/fw/while/Identity"
  input: "encoder/stack_bidirectional_rnn/cell_0/bidirectional_rnn/fw/fw/while/add/y"
  attr {
    key: "T"
    value {
      type: DT_INT32
    }
  }
  attr {
    key: "_output_shapes"
    value {
      list {
        shape {
        }
      }
    }
  }
}
node {
  name: "encoder/stack_bidirectional_rnn/cell_0/bidirectional_rnn/fw/fw/while/NextIteration"
  op: "NextIteration"
  input: "encoder/stack_bidirectional_rnn/cell_0/bidirectional_rnn/fw/fw/while/add"
  attr {
    key: "T"
    value {
      type: DT_INT32
    }
  }
  attr {
    key: "_output_shapes"
    value {
      list {
        shape {
        }
      }
    }
  }
}
node {
  name: "encoder/stack_bidirectional_rnn/cell_0/bidirectional_rnn/fw/fw/while/NextIteration_1"
  op: "NextIteration"
  input: "encoder/stack_bidirectional_rnn/cell_0/bidirectional_rnn/fw/fw/while/TensorArrayWrite/TensorArrayWriteV3"
  attr {
    key: "T"
    value {
      type: DT_FLOAT
    }
  }
  attr {
    key: "_output_shapes"
    value {
      list {
        shape {
        }
      }
    }
  }
}
node {
  name: "encoder/stack_bidirectional_rnn/cell_0/bidirectional_rnn/fw/fw/while/NextIteration_2"
  op: "NextIteration"
  input: "encoder/stack_bidirectional_rnn/cell_0/bidirectional_rnn/fw/fw/while/fw/basic_lstm_cell/add_1"
  attr {
    key: "T"
    value {
      type: DT_FLOAT
    }
  }
  attr {
    key: "_output_shapes"
    value {
      list {
        shape {
          dim {
            size: 3
          }
          dim {
            size: 7
          }
        }
      }
    }
  }
}
node {
  name: "encoder/stack_bidirectional_rnn/cell_0/bidirectional_rnn/fw/fw/while/NextIteration_3"
  op: "NextIteration"
  input: "encoder/stack_bidirectional_rnn/cell_0/bidirectional_rnn/fw/fw/while/fw/basic_lstm_cell/mul_2"
  attr {
    key: "T"
    value {
      type: DT_FLOAT
    }
  }
  attr {
    key: "_output_shapes"
    value {
      list {
        shape {
          dim {
            size: 3
          }
          dim {
            size: 7
          }
        }
      }
    }
  }
}
node {
  name: "encoder/stack_bidirectional_rnn/cell_0/bidirectional_rnn/fw/fw/while/Exit"
  op: "Exit"
  input: "encoder/stack_bidirectional_rnn/cell_0/bidirectional_rnn/fw/fw/while/Switch"
  attr {
    key: "T"
    value {
      type: DT_INT32
    }
  }
  attr {
    key: "_output_shapes"
    value {
      list {
        shape {
        }
      }
    }
  }
}
node {
  name: "encoder/stack_bidirectional_rnn/cell_0/bidirectional_rnn/fw/fw/while/Exit_1"
  op: "Exit"
  input: "encoder/stack_bidirectional_rnn/cell_0/bidirectional_rnn/fw/fw/while/Switch_1"
  attr {
    key: "T"
    value {
      type: DT_FLOAT
    }
  }
  attr {
    key: "_output_shapes"
    value {
      list {
        shape {
        }
      }
    }
  }
}
node {
  name: "encoder/stack_bidirectional_rnn/cell_0/bidirectional_rnn/fw/fw/while/Exit_2"
  op: "Exit"
  input: "encoder/stack_bidirectional_rnn/cell_0/bidirectional_rnn/fw/fw/while/Switch_2"
  attr {
    key: "T"
    value {
      type: DT_FLOAT
    }
  }
  attr {
    key: "_output_shapes"
    value {
      list {
        shape {
          dim {
            size: 3
          }
          dim {
            size: 7
          }
        }
      }
    }
  }
}
node {
  name: "encoder/stack_bidirectional_rnn/cell_0/bidirectional_rnn/fw/fw/while/Exit_3"
  op: "Exit"
  input: "encoder/stack_bidirectional_rnn/cell_0/bidirectional_rnn/fw/fw/while/Switch_3"
  attr {
    key: "T"
    value {
      type: DT_FLOAT
    }
  }
  attr {
    key: "_output_shapes"
    value {
      list {
        shape {
          dim {
            size: 3
          }
          dim {
            size: 7
          }
        }
      }
    }
  }
}
node {
  name: "encoder/stack_bidirectional_rnn/cell_0/bidirectional_rnn/fw/fw/TensorArrayStack/TensorArraySizeV3"
  op: "TensorArraySizeV3"
  input: "encoder/stack_bidirectional_rnn/cell_0/bidirectional_rnn/fw/fw/TensorArray"
  input: "encoder/stack_bidirectional_rnn/cell_0/bidirectional_rnn/fw/fw/while/Exit_1"
  attr {
    key: "_class"
    value {
      list {
        s: "loc:@encoder/stack_bidirectional_rnn/cell_0/bidirectional_rnn/fw/fw/TensorArray"
      }
    }
  }
  attr {
    key: "_output_shapes"
    value {
      list {
        shape {
        }
      }
    }
  }
}
node {
  name: "encoder/stack_bidirectional_rnn/cell_0/bidirectional_rnn/fw/fw/TensorArrayStack/range/start"
  op: "Const"
  input: "^add"
  attr {
    key: "_class"
    value {
      list {
        s: "loc:@encoder/stack_bidirectional_rnn/cell_0/bidirectional_rnn/fw/fw/TensorArray"
      }
    }
  }
  attr {
    key: "_output_shapes"
    value {
      list {
        shape {
        }
      }
    }
  }
  attr {
    key: "dtype"
    value {
      type: DT_INT32
    }
  }
  attr {
    key: "value"
    value {
      tensor {
        dtype: DT_INT32
        tensor_shape {
        }
        int_val: 0
      }
    }
  }
}
node {
  name: "encoder/stack_bidirectional_rnn/cell_0/bidirectional_rnn/fw/fw/TensorArrayStack/range/delta"
  op: "Const"
  input: "^add"
  attr {
    key: "_class"
    value {
      list {
        s: "loc:@encoder/stack_bidirectional_rnn/cell_0/bidirectional_rnn/fw/fw/TensorArray"
      }
    }
  }
  attr {
    key: "_output_shapes"
    value {
      list {
        shape {
        }
      }
    }
  }
  attr {
    key: "dtype"
    value {
      type: DT_INT32
    }
  }
  attr {
    key: "value"
    value {
      tensor {
        dtype: DT_INT32
        tensor_shape {
        }
        int_val: 1
      }
    }
  }
}
node {
  name: "encoder/stack_bidirectional_rnn/cell_0/bidirectional_rnn/fw/fw/TensorArrayStack/range"
  op: "Range"
  input: "encoder/stack_bidirectional_rnn/cell_0/bidirectional_rnn/fw/fw/TensorArrayStack/range/start"
  input: "encoder/stack_bidirectional_rnn/cell_0/bidirectional_rnn/fw/fw/TensorArrayStack/TensorArraySizeV3"
  input: "encoder/stack_bidirectional_rnn/cell_0/bidirectional_rnn/fw/fw/TensorArrayStack/range/delta"
  attr {
    key: "Tidx"
    value {
      type: DT_INT32
    }
  }
  attr {
    key: "_class"
    value {
      list {
        s: "loc:@encoder/stack_bidirectional_rnn/cell_0/bidirectional_rnn/fw/fw/TensorArray"
      }
    }
  }
  attr {
    key: "_output_shapes"
    value {
      list {
        shape {
          dim {
            size: -1
          }
        }
      }
    }
  }
}
node {
  name: "encoder/stack_bidirectional_rnn/cell_0/bidirectional_rnn/fw/fw/TensorArrayStack/TensorArrayGatherV3"
  op: "TensorArrayGatherV3"
  input: "encoder/stack_bidirectional_rnn/cell_0/bidirectional_rnn/fw/fw/TensorArray"
  input: "encoder/stack_bidirectional_rnn/cell_0/bidirectional_rnn/fw/fw/TensorArrayStack/range"
  input: "encoder/stack_bidirectional_rnn/cell_0/bidirectional_rnn/fw/fw/while/Exit_1"
  attr {
    key: "_class"
    value {
      list {
        s: "loc:@encoder/stack_bidirectional_rnn/cell_0/bidirectional_rnn/fw/fw/TensorArray"
      }
    }
  }
  attr {
    key: "_output_shapes"
    value {
      list {
        shape {
          dim {
            size: 4
          }
          dim {
            size: 3
          }
          dim {
            size: 7
          }
        }
      }
    }
  }
  attr {
    key: "dtype"
    value {
      type: DT_FLOAT
    }
  }
  attr {
    key: "element_shape"
    value {
      shape {
        dim {
          size: 3
        }
        dim {
          size: 7
        }
      }
    }
  }
}
node {
  name: "encoder/stack_bidirectional_rnn/cell_0/bidirectional_rnn/fw/fw/Const_2"
  op: "Const"
  input: "^add"
  attr {
    key: "_output_shapes"
    value {
      list {
        shape {
          dim {
            size: 2
          }
        }
      }
    }
  }
  attr {
    key: "dtype"
    value {
      type: DT_INT32
    }
  }
  attr {
    key: "value"
    value {
      tensor {
        dtype: DT_INT32
        tensor_shape {
          dim {
            size: 2
          }
        }
        tensor_content: "\004\000\000\000\003\000\000\000"
      }
    }
  }
}
node {
  name: "encoder/stack_bidirectional_rnn/cell_0/bidirectional_rnn/fw/fw/Const_3"
  op: "Const"
  input: "^add"
  attr {
    key: "_output_shapes"
    value {
      list {
        shape {
          dim {
            size: 1
          }
        }
      }
    }
  }
  attr {
    key: "dtype"
    value {
      type: DT_INT32
    }
  }
  attr {
    key: "value"
    value {
      tensor {
        dtype: DT_INT32
        tensor_shape {
          dim {
            size: 1
          }
        }
        int_val: 7
      }
    }
  }
}
node {
  name: "encoder/stack_bidirectional_rnn/cell_0/bidirectional_rnn/fw/fw/Rank"
  op: "Const"
  input: "^add"
  attr {
    key: "_output_shapes"
    value {
      list {
        shape {
        }
      }
    }
  }
  attr {
    key: "dtype"
    value {
      type: DT_INT32
    }
  }
  attr {
    key: "value"
    value {
      tensor {
        dtype: DT_INT32
        tensor_shape {
        }
        int_val: 3
      }
    }
  }
}
node {
  name: "encoder/stack_bidirectional_rnn/cell_0/bidirectional_rnn/fw/fw/range/start"
  op: "Const"
  input: "^add"
  attr {
    key: "_output_shapes"
    value {
      list {
        shape {
        }
      }
    }
  }
  attr {
    key: "dtype"
    value {
      type: DT_INT32
    }
  }
  attr {
    key: "value"
    value {
      tensor {
        dtype: DT_INT32
        tensor_shape {
        }
        int_val: 2
      }
    }
  }
}
node {
  name: "encoder/stack_bidirectional_rnn/cell_0/bidirectional_rnn/fw/fw/range/delta"
  op: "Const"
  input: "^add"
  attr {
    key: "_output_shapes"
    value {
      list {
        shape {
        }
      }
    }
  }
  attr {
    key: "dtype"
    value {
      type: DT_INT32
    }
  }
  attr {
    key: "value"
    value {
      tensor {
        dtype: DT_INT32
        tensor_shape {
        }
        int_val: 1
      }
    }
  }
}
node {
  name: "encoder/stack_bidirectional_rnn/cell_0/bidirectional_rnn/fw/fw/range"
  op: "Range"
  input: "encoder/stack_bidirectional_rnn/cell_0/bidirectional_rnn/fw/fw/range/start"
  input: "encoder/stack_bidirectional_rnn/cell_0/bidirectional_rnn/fw/fw/Rank"
  input: "encoder/stack_bidirectional_rnn/cell_0/bidirectional_rnn/fw/fw/range/delta"
  attr {
    key: "Tidx"
    value {
      type: DT_INT32
    }
  }
  attr {
    key: "_output_shapes"
    value {
      list {
        shape {
          dim {
            size: 1
          }
        }
      }
    }
  }
}
node {
  name: "encoder/stack_bidirectional_rnn/cell_0/bidirectional_rnn/fw/fw/concat_1/values_0"
  op: "Const"
  input: "^add"
  attr {
    key: "_output_shapes"
    value {
      list {
        shape {
          dim {
            size: 2
          }
        }
      }
    }
  }
  attr {
    key: "dtype"
    value {
      type: DT_INT32
    }
  }
  attr {
    key: "value"
    value {
      tensor {
        dtype: DT_INT32
        tensor_shape {
          dim {
            size: 2
          }
        }
        tensor_content: "\001\000\000\000\000\000\000\000"
      }
    }
  }
}
node {
  name: "encoder/stack_bidirectional_rnn/cell_0/bidirectional_rnn/fw/fw/concat_1/axis"
  op: "Const"
  input: "^add"
  attr {
    key: "_output_shapes"
    value {
      list {
        shape {
        }
      }
    }
  }
  attr {
    key: "dtype"
    value {
      type: DT_INT32
    }
  }
  attr {
    key: "value"
    value {
      tensor {
        dtype: DT_INT32
        tensor_shape {
        }
        int_val: 0
      }
    }
  }
}
node {
  name: "encoder/stack_bidirectional_rnn/cell_0/bidirectional_rnn/fw/fw/concat_1"
  op: "ConcatV2"
  input: "encoder/stack_bidirectional_rnn/cell_0/bidirectional_rnn/fw/fw/concat_1/values_0"
  input: "encoder/stack_bidirectional_rnn/cell_0/bidirectional_rnn/fw/fw/range"
  input: "encoder/stack_bidirectional_rnn/cell_0/bidirectional_rnn/fw/fw/concat_1/axis"
  attr {
    key: "N"
    value {
      i: 2
    }
  }
  attr {
    key: "T"
    value {
      type: DT_INT32
    }
  }
  attr {
    key: "Tidx"
    value {
      type: DT_INT32
    }
  }
  attr {
    key: "_output_shapes"
    value {
      list {
        shape {
          dim {
            size: 3
          }
        }
      }
    }
  }
}
node {
  name: "encoder/stack_bidirectional_rnn/cell_0/bidirectional_rnn/fw/fw/transpose"
  op: "Transpose"
  input: "encoder/stack_bidirectional_rnn/cell_0/bidirectional_rnn/fw/fw/TensorArrayStack/TensorArrayGatherV3"
  input: "encoder/stack_bidirectional_rnn/cell_0/bidirectional_rnn/fw/fw/concat_1"
  attr {
    key: "T"
    value {
      type: DT_FLOAT
    }
  }
  attr {
    key: "Tperm"
    value {
      type: DT_INT32
    }
  }
  attr {
    key: "_output_shapes"
    value {
      list {
        shape {
          dim {
            size: 3
          }
          dim {
            size: 4
          }
          dim {
            size: 7
          }
        }
      }
    }
  }
}
node {
  name: "encoder/stack_bidirectional_rnn/cell_0/bidirectional_rnn/bw/ReverseV2/axis"
  op: "Const"
  input: "^add"
  attr {
    key: "_output_shapes"
    value {
      list {
        shape {
          dim {
            size: 1
          }
        }
      }
    }
  }
  attr {
    key: "dtype"
    value {
      type: DT_INT32
    }
  }
  attr {
    key: "value"
    value {
      tensor {
        dtype: DT_INT32
        tensor_shape {
          dim {
            size: 1
          }
        }
        int_val: 1
      }
    }
  }
}
node {
  name: "encoder/stack_bidirectional_rnn/cell_0/bidirectional_rnn/bw/ReverseV2"
  op: "ReverseV2"
  input: "one_hot"
  input: "encoder/stack_bidirectional_rnn/cell_0/bidirectional_rnn/bw/ReverseV2/axis"
  attr {
    key: "T"
    value {
      type: DT_FLOAT
    }
  }
  attr {
    key: "Tidx"
    value {
      type: DT_INT32
    }
  }
  attr {
    key: "_output_shapes"
    value {
      list {
        shape {
          dim {
            size: 3
          }
          dim {
            size: 4
          }
          dim {
            size: 7
          }
        }
      }
    }
  }
}
node {
  name: "encoder/stack_bidirectional_rnn/cell_0/bidirectional_rnn/bw/Rank"
  op: "Const"
  input: "^add"
  attr {
    key: "_output_shapes"
    value {
      list {
        shape {
        }
      }
    }
  }
  attr {
    key: "dtype"
    value {
      type: DT_INT32
    }
  }
  attr {
    key: "value"
    value {
      tensor {
        dtype: DT_INT32
        tensor_shape {
        }
        int_val: 3
      }
    }
  }
}
node {
  name: "encoder/stack_bidirectional_rnn/cell_0/bidirectional_rnn/bw/range/start"
  op: "Const"
  input: "^add"
  attr {
    key: "_output_shapes"
    value {
      list {
        shape {
        }
      }
    }
  }
  attr {
    key: "dtype"
    value {
      type: DT_INT32
    }
  }
  attr {
    key: "value"
    value {
      tensor {
        dtype: DT_INT32
        tensor_shape {
        }
        int_val: 2
      }
    }
  }
}
node {
  name: "encoder/stack_bidirectional_rnn/cell_0/bidirectional_rnn/bw/range/delta"
  op: "Const"
  input: "^add"
  attr {
    key: "_output_shapes"
    value {
      list {
        shape {
        }
      }
    }
  }
  attr {
    key: "dtype"
    value {
      type: DT_INT32
    }
  }
  attr {
    key: "value"
    value {
      tensor {
        dtype: DT_INT32
        tensor_shape {
        }
        int_val: 1
      }
    }
  }
}
node {
  name: "encoder/stack_bidirectional_rnn/cell_0/bidirectional_rnn/bw/range"
  op: "Range"
  input: "encoder/stack_bidirectional_rnn/cell_0/bidirectional_rnn/bw/range/start"
  input: "encoder/stack_bidirectional_rnn/cell_0/bidirectional_rnn/bw/Rank"
  input: "encoder/stack_bidirectional_rnn/cell_0/bidirectional_rnn/bw/range/delta"
  attr {
    key: "Tidx"
    value {
      type: DT_INT32
    }
  }
  attr {
    key: "_output_shapes"
    value {
      list {
        shape {
          dim {
            size: 1
          }
        }
      }
    }
  }
}
node {
  name: "encoder/stack_bidirectional_rnn/cell_0/bidirectional_rnn/bw/concat/values_0"
  op: "Const"
  input: "^add"
  attr {
    key: "_output_shapes"
    value {
      list {
        shape {
          dim {
            size: 2
          }
        }
      }
    }
  }
  attr {
    key: "dtype"
    value {
      type: DT_INT32
    }
  }
  attr {
    key: "value"
    value {
      tensor {
        dtype: DT_INT32
        tensor_shape {
          dim {
            size: 2
          }
        }
        tensor_content: "\001\000\000\000\000\000\000\000"
      }
    }
  }
}
node {
  name: "encoder/stack_bidirectional_rnn/cell_0/bidirectional_rnn/bw/concat/axis"
  op: "Const"
  input: "^add"
  attr {
    key: "_output_shapes"
    value {
      list {
        shape {
        }
      }
    }
  }
  attr {
    key: "dtype"
    value {
      type: DT_INT32
    }
  }
  attr {
    key: "value"
    value {
      tensor {
        dtype: DT_INT32
        tensor_shape {
        }
        int_val: 0
      }
    }
  }
}
node {
  name: "encoder/stack_bidirectional_rnn/cell_0/bidirectional_rnn/bw/concat"
  op: "ConcatV2"
  input: "encoder/stack_bidirectional_rnn/cell_0/bidirectional_rnn/bw/concat/values_0"
  input: "encoder/stack_bidirectional_rnn/cell_0/bidirectional_rnn/bw/range"
  input: "encoder/stack_bidirectional_rnn/cell_0/bidirectional_rnn/bw/concat/axis"
  attr {
    key: "N"
    value {
      i: 2
    }
  }
  attr {
    key: "T"
    value {
      type: DT_INT32
    }
  }
  attr {
    key: "Tidx"
    value {
      type: DT_INT32
    }
  }
  attr {
    key: "_output_shapes"
    value {
      list {
        shape {
          dim {
            size: 3
          }
        }
      }
    }
  }
}
node {
  name: "encoder/stack_bidirectional_rnn/cell_0/bidirectional_rnn/bw/transpose"
  op: "Transpose"
  input: "encoder/stack_bidirectional_rnn/cell_0/bidirectional_rnn/bw/ReverseV2"
  input: "encoder/stack_bidirectional_rnn/cell_0/bidirectional_rnn/bw/concat"
  attr {
    key: "T"
    value {
      type: DT_FLOAT
    }
  }
  attr {
    key: "Tperm"
    value {
      type: DT_INT32
    }
  }
  attr {
    key: "_output_shapes"
    value {
      list {
        shape {
          dim {
            size: 4
          }
          dim {
            size: 3
          }
          dim {
            size: 7
          }
        }
      }
    }
  }
}
node {
  name: "encoder/stack_bidirectional_rnn/cell_0/bidirectional_rnn/bw/bw/BasicLSTMCellZeroState/Const"
  op: "Const"
  input: "^add"
  attr {
    key: "_output_shapes"
    value {
      list {
        shape {
          dim {
            size: 1
          }
        }
      }
    }
  }
  attr {
    key: "dtype"
    value {
      type: DT_INT32
    }
  }
  attr {
    key: "value"
    value {
      tensor {
        dtype: DT_INT32
        tensor_shape {
          dim {
            size: 1
          }
        }
        int_val: 3
      }
    }
  }
}
node {
  name: "encoder/stack_bidirectional_rnn/cell_0/bidirectional_rnn/bw/bw/BasicLSTMCellZeroState/Const_1"
  op: "Const"
  input: "^add"
  attr {
    key: "_output_shapes"
    value {
      list {
        shape {
          dim {
            size: 1
          }
        }
      }
    }
  }
  attr {
    key: "dtype"
    value {
      type: DT_INT32
    }
  }
  attr {
    key: "value"
    value {
      tensor {
        dtype: DT_INT32
        tensor_shape {
          dim {
            size: 1
          }
        }
        int_val: 7
      }
    }
  }
}
node {
  name: "encoder/stack_bidirectional_rnn/cell_0/bidirectional_rnn/bw/bw/BasicLSTMCellZeroState/concat/axis"
  op: "Const"
  input: "^add"
  attr {
    key: "_output_shapes"
    value {
      list {
        shape {
        }
      }
    }
  }
  attr {
    key: "dtype"
    value {
      type: DT_INT32
    }
  }
  attr {
    key: "value"
    value {
      tensor {
        dtype: DT_INT32
        tensor_shape {
        }
        int_val: 0
      }
    }
  }
}
node {
  name: "encoder/stack_bidirectional_rnn/cell_0/bidirectional_rnn/bw/bw/BasicLSTMCellZeroState/concat"
  op: "ConcatV2"
  input: "encoder/stack_bidirectional_rnn/cell_0/bidirectional_rnn/bw/bw/BasicLSTMCellZeroState/Const"
  input: "encoder/stack_bidirectional_rnn/cell_0/bidirectional_rnn/bw/bw/BasicLSTMCellZeroState/Const_1"
  input: "encoder/stack_bidirectional_rnn/cell_0/bidirectional_rnn/bw/bw/BasicLSTMCellZeroState/concat/axis"
  attr {
    key: "N"
    value {
      i: 2
    }
  }
  attr {
    key: "T"
    value {
      type: DT_INT32
    }
  }
  attr {
    key: "Tidx"
    value {
      type: DT_INT32
    }
  }
  attr {
    key: "_output_shapes"
    value {
      list {
        shape {
          dim {
            size: 2
          }
        }
      }
    }
  }
}
node {
  name: "encoder/stack_bidirectional_rnn/cell_0/bidirectional_rnn/bw/bw/BasicLSTMCellZeroState/zeros/Const"
  op: "Const"
  input: "^add"
  attr {
    key: "_output_shapes"
    value {
      list {
        shape {
        }
      }
    }
  }
  attr {
    key: "dtype"
    value {
      type: DT_FLOAT
    }
  }
  attr {
    key: "value"
    value {
      tensor {
        dtype: DT_FLOAT
        tensor_shape {
        }
        float_val: 0.0
      }
    }
  }
}
node {
  name: "encoder/stack_bidirectional_rnn/cell_0/bidirectional_rnn/bw/bw/BasicLSTMCellZeroState/zeros"
  op: "Fill"
  input: "encoder/stack_bidirectional_rnn/cell_0/bidirectional_rnn/bw/bw/BasicLSTMCellZeroState/concat"
  input: "encoder/stack_bidirectional_rnn/cell_0/bidirectional_rnn/bw/bw/BasicLSTMCellZeroState/zeros/Const"
  attr {
    key: "T"
    value {
      type: DT_FLOAT
    }
  }
  attr {
    key: "_output_shapes"
    value {
      list {
        shape {
          dim {
            size: 3
          }
          dim {
            size: 7
          }
        }
      }
    }
  }
}
node {
  name: "encoder/stack_bidirectional_rnn/cell_0/bidirectional_rnn/bw/bw/BasicLSTMCellZeroState/Const_2"
  op: "Const"
  input: "^add"
  attr {
    key: "_output_shapes"
    value {
      list {
        shape {
          dim {
            size: 1
          }
        }
      }
    }
  }
  attr {
    key: "dtype"
    value {
      type: DT_INT32
    }
  }
  attr {
    key: "value"
    value {
      tensor {
        dtype: DT_INT32
        tensor_shape {
          dim {
            size: 1
          }
        }
        int_val: 3
      }
    }
  }
}
node {
  name: "encoder/stack_bidirectional_rnn/cell_0/bidirectional_rnn/bw/bw/BasicLSTMCellZeroState/Const_3"
  op: "Const"
  input: "^add"
  attr {
    key: "_output_shapes"
    value {
      list {
        shape {
          dim {
            size: 1
          }
        }
      }
    }
  }
  attr {
    key: "dtype"
    value {
      type: DT_INT32
    }
  }
  attr {
    key: "value"
    value {
      tensor {
        dtype: DT_INT32
        tensor_shape {
          dim {
            size: 1
          }
        }
        int_val: 7
      }
    }
  }
}
node {
  name: "encoder/stack_bidirectional_rnn/cell_0/bidirectional_rnn/bw/bw/BasicLSTMCellZeroState/Const_4"
  op: "Const"
  input: "^add"
  attr {
    key: "_output_shapes"
    value {
      list {
        shape {
          dim {
            size: 1
          }
        }
      }
    }
  }
  attr {
    key: "dtype"
    value {
      type: DT_INT32
    }
  }
  attr {
    key: "value"
    value {
      tensor {
        dtype: DT_INT32
        tensor_shape {
          dim {
            size: 1
          }
        }
        int_val: 3
      }
    }
  }
}
node {
  name: "encoder/stack_bidirectional_rnn/cell_0/bidirectional_rnn/bw/bw/BasicLSTMCellZeroState/Const_5"
  op: "Const"
  input: "^add"
  attr {
    key: "_output_shapes"
    value {
      list {
        shape {
          dim {
            size: 1
          }
        }
      }
    }
  }
  attr {
    key: "dtype"
    value {
      type: DT_INT32
    }
  }
  attr {
    key: "value"
    value {
      tensor {
        dtype: DT_INT32
        tensor_shape {
          dim {
            size: 1
          }
        }
        int_val: 7
      }
    }
  }
}
node {
  name: "encoder/stack_bidirectional_rnn/cell_0/bidirectional_rnn/bw/bw/BasicLSTMCellZeroState/concat_1/axis"
  op: "Const"
  input: "^add"
  attr {
    key: "_output_shapes"
    value {
      list {
        shape {
        }
      }
    }
  }
  attr {
    key: "dtype"
    value {
      type: DT_INT32
    }
  }
  attr {
    key: "value"
    value {
      tensor {
        dtype: DT_INT32
        tensor_shape {
        }
        int_val: 0
      }
    }
  }
}
node {
  name: "encoder/stack_bidirectional_rnn/cell_0/bidirectional_rnn/bw/bw/BasicLSTMCellZeroState/concat_1"
  op: "ConcatV2"
  input: "encoder/stack_bidirectional_rnn/cell_0/bidirectional_rnn/bw/bw/BasicLSTMCellZeroState/Const_4"
  input: "encoder/stack_bidirectional_rnn/cell_0/bidirectional_rnn/bw/bw/BasicLSTMCellZeroState/Const_5"
  input: "encoder/stack_bidirectional_rnn/cell_0/bidirectional_rnn/bw/bw/BasicLSTMCellZeroState/concat_1/axis"
  attr {
    key: "N"
    value {
      i: 2
    }
  }
  attr {
    key: "T"
    value {
      type: DT_INT32
    }
  }
  attr {
    key: "Tidx"
    value {
      type: DT_INT32
    }
  }
  attr {
    key: "_output_shapes"
    value {
      list {
        shape {
          dim {
            size: 2
          }
        }
      }
    }
  }
}
node {
  name: "encoder/stack_bidirectional_rnn/cell_0/bidirectional_rnn/bw/bw/BasicLSTMCellZeroState/zeros_1/Const"
  op: "Const"
  input: "^add"
  attr {
    key: "_output_shapes"
    value {
      list {
        shape {
        }
      }
    }
  }
  attr {
    key: "dtype"
    value {
      type: DT_FLOAT
    }
  }
  attr {
    key: "value"
    value {
      tensor {
        dtype: DT_FLOAT
        tensor_shape {
        }
        float_val: 0.0
      }
    }
  }
}
node {
  name: "encoder/stack_bidirectional_rnn/cell_0/bidirectional_rnn/bw/bw/BasicLSTMCellZeroState/zeros_1"
  op: "Fill"
  input: "encoder/stack_bidirectional_rnn/cell_0/bidirectional_rnn/bw/bw/BasicLSTMCellZeroState/concat_1"
  input: "encoder/stack_bidirectional_rnn/cell_0/bidirectional_rnn/bw/bw/BasicLSTMCellZeroState/zeros_1/Const"
  attr {
    key: "T"
    value {
      type: DT_FLOAT
    }
  }
  attr {
    key: "_output_shapes"
    value {
      list {
        shape {
          dim {
            size: 3
          }
          dim {
            size: 7
          }
        }
      }
    }
  }
}
node {
  name: "encoder/stack_bidirectional_rnn/cell_0/bidirectional_rnn/bw/bw/BasicLSTMCellZeroState/Const_6"
  op: "Const"
  input: "^add"
  attr {
    key: "_output_shapes"
    value {
      list {
        shape {
          dim {
            size: 1
          }
        }
      }
    }
  }
  attr {
    key: "dtype"
    value {
      type: DT_INT32
    }
  }
  attr {
    key: "value"
    value {
      tensor {
        dtype: DT_INT32
        tensor_shape {
          dim {
            size: 1
          }
        }
        int_val: 3
      }
    }
  }
}
node {
  name: "encoder/stack_bidirectional_rnn/cell_0/bidirectional_rnn/bw/bw/BasicLSTMCellZeroState/Const_7"
  op: "Const"
  input: "^add"
  attr {
    key: "_output_shapes"
    value {
      list {
        shape {
          dim {
            size: 1
          }
        }
      }
    }
  }
  attr {
    key: "dtype"
    value {
      type: DT_INT32
    }
  }
  attr {
    key: "value"
    value {
      tensor {
        dtype: DT_INT32
        tensor_shape {
          dim {
            size: 1
          }
        }
        int_val: 7
      }
    }
  }
}
node {
  name: "encoder/stack_bidirectional_rnn/cell_0/bidirectional_rnn/bw/bw/Shape"
  op: "Const"
  input: "^add"
  attr {
    key: "_output_shapes"
    value {
      list {
        shape {
          dim {
            size: 3
          }
        }
      }
    }
  }
  attr {
    key: "dtype"
    value {
      type: DT_INT32
    }
  }
  attr {
    key: "value"
    value {
      tensor {
        dtype: DT_INT32
        tensor_shape {
          dim {
            size: 3
          }
        }
        tensor_content: "\004\000\000\000\003\000\000\000\007\000\000\000"
      }
    }
  }
}
node {
  name: "encoder/stack_bidirectional_rnn/cell_0/bidirectional_rnn/bw/bw/strided_slice/stack"
  op: "Const"
  input: "^add"
  attr {
    key: "_output_shapes"
    value {
      list {
        shape {
          dim {
            size: 1
          }
        }
      }
    }
  }
  attr {
    key: "dtype"
    value {
      type: DT_INT32
    }
  }
  attr {
    key: "value"
    value {
      tensor {
        dtype: DT_INT32
        tensor_shape {
          dim {
            size: 1
          }
        }
        int_val: 0
      }
    }
  }
}
node {
  name: "encoder/stack_bidirectional_rnn/cell_0/bidirectional_rnn/bw/bw/strided_slice/stack_1"
  op: "Const"
  input: "^add"
  attr {
    key: "_output_shapes"
    value {
      list {
        shape {
          dim {
            size: 1
          }
        }
      }
    }
  }
  attr {
    key: "dtype"
    value {
      type: DT_INT32
    }
  }
  attr {
    key: "value"
    value {
      tensor {
        dtype: DT_INT32
        tensor_shape {
          dim {
            size: 1
          }
        }
        int_val: 1
      }
    }
  }
}
node {
  name: "encoder/stack_bidirectional_rnn/cell_0/bidirectional_rnn/bw/bw/strided_slice/stack_2"
  op: "Const"
  input: "^add"
  attr {
    key: "_output_shapes"
    value {
      list {
        shape {
          dim {
            size: 1
          }
        }
      }
    }
  }
  attr {
    key: "dtype"
    value {
      type: DT_INT32
    }
  }
  attr {
    key: "value"
    value {
      tensor {
        dtype: DT_INT32
        tensor_shape {
          dim {
            size: 1
          }
        }
        int_val: 1
      }
    }
  }
}
node {
  name: "encoder/stack_bidirectional_rnn/cell_0/bidirectional_rnn/bw/bw/strided_slice"
  op: "StridedSlice"
  input: "encoder/stack_bidirectional_rnn/cell_0/bidirectional_rnn/bw/bw/Shape"
  input: "encoder/stack_bidirectional_rnn/cell_0/bidirectional_rnn/bw/bw/strided_slice/stack"
  input: "encoder/stack_bidirectional_rnn/cell_0/bidirectional_rnn/bw/bw/strided_slice/stack_1"
  input: "encoder/stack_bidirectional_rnn/cell_0/bidirectional_rnn/bw/bw/strided_slice/stack_2"
  attr {
    key: "Index"
    value {
      type: DT_INT32
    }
  }
  attr {
    key: "T"
    value {
      type: DT_INT32
    }
  }
  attr {
    key: "_output_shapes"
    value {
      list {
        shape {
        }
      }
    }
  }
  attr {
    key: "begin_mask"
    value {
      i: 0
    }
  }
  attr {
    key: "ellipsis_mask"
    value {
      i: 0
    }
  }
  attr {
    key: "end_mask"
    value {
      i: 0
    }
  }
  attr {
    key: "new_axis_mask"
    value {
      i: 0
    }
  }
  attr {
    key: "shrink_axis_mask"
    value {
      i: 1
    }
  }
}
node {
  name: "encoder/stack_bidirectional_rnn/cell_0/bidirectional_rnn/bw/bw/Const"
  op: "Const"
  input: "^add"
  attr {
    key: "_output_shapes"
    value {
      list {
        shape {
          dim {
            size: 1
          }
        }
      }
    }
  }
  attr {
    key: "dtype"
    value {
      type: DT_INT32
    }
  }
  attr {
    key: "value"
    value {
      tensor {
        dtype: DT_INT32
        tensor_shape {
          dim {
            size: 1
          }
        }
        int_val: 3
      }
    }
  }
}
node {
  name: "encoder/stack_bidirectional_rnn/cell_0/bidirectional_rnn/bw/bw/Const_1"
  op: "Const"
  input: "^add"
  attr {
    key: "_output_shapes"
    value {
      list {
        shape {
          dim {
            size: 1
          }
        }
      }
    }
  }
  attr {
    key: "dtype"
    value {
      type: DT_INT32
    }
  }
  attr {
    key: "value"
    value {
      tensor {
        dtype: DT_INT32
        tensor_shape {
          dim {
            size: 1
          }
        }
        int_val: 7
      }
    }
  }
}
node {
  name: "encoder/stack_bidirectional_rnn/cell_0/bidirectional_rnn/bw/bw/concat/axis"
  op: "Const"
  input: "^add"
  attr {
    key: "_output_shapes"
    value {
      list {
        shape {
        }
      }
    }
  }
  attr {
    key: "dtype"
    value {
      type: DT_INT32
    }
  }
  attr {
    key: "value"
    value {
      tensor {
        dtype: DT_INT32
        tensor_shape {
        }
        int_val: 0
      }
    }
  }
}
node {
  name: "encoder/stack_bidirectional_rnn/cell_0/bidirectional_rnn/bw/bw/concat"
  op: "ConcatV2"
  input: "encoder/stack_bidirectional_rnn/cell_0/bidirectional_rnn/bw/bw/Const"
  input: "encoder/stack_bidirectional_rnn/cell_0/bidirectional_rnn/bw/bw/Const_1"
  input: "encoder/stack_bidirectional_rnn/cell_0/bidirectional_rnn/bw/bw/concat/axis"
  attr {
    key: "N"
    value {
      i: 2
    }
  }
  attr {
    key: "T"
    value {
      type: DT_INT32
    }
  }
  attr {
    key: "Tidx"
    value {
      type: DT_INT32
    }
  }
  attr {
    key: "_output_shapes"
    value {
      list {
        shape {
          dim {
            size: 2
          }
        }
      }
    }
  }
}
node {
  name: "encoder/stack_bidirectional_rnn/cell_0/bidirectional_rnn/bw/bw/zeros/Const"
  op: "Const"
  input: "^add"
  attr {
    key: "_output_shapes"
    value {
      list {
        shape {
        }
      }
    }
  }
  attr {
    key: "dtype"
    value {
      type: DT_FLOAT
    }
  }
  attr {
    key: "value"
    value {
      tensor {
        dtype: DT_FLOAT
        tensor_shape {
        }
        float_val: 0.0
      }
    }
  }
}
node {
  name: "encoder/stack_bidirectional_rnn/cell_0/bidirectional_rnn/bw/bw/zeros"
  op: "Fill"
  input: "encoder/stack_bidirectional_rnn/cell_0/bidirectional_rnn/bw/bw/concat"
  input: "encoder/stack_bidirectional_rnn/cell_0/bidirectional_rnn/bw/bw/zeros/Const"
  attr {
    key: "T"
    value {
      type: DT_FLOAT
    }
  }
  attr {
    key: "_output_shapes"
    value {
      list {
        shape {
          dim {
            size: 3
          }
          dim {
            size: 7
          }
        }
      }
    }
  }
}
node {
  name: "encoder/stack_bidirectional_rnn/cell_0/bidirectional_rnn/bw/bw/time"
  op: "Const"
  input: "^add"
  attr {
    key: "_output_shapes"
    value {
      list {
        shape {
        }
      }
    }
  }
  attr {
    key: "dtype"
    value {
      type: DT_INT32
    }
  }
  attr {
    key: "value"
    value {
      tensor {
        dtype: DT_INT32
        tensor_shape {
        }
        int_val: 0
      }
    }
  }
}
node {
  name: "encoder/stack_bidirectional_rnn/cell_0/bidirectional_rnn/bw/bw/TensorArray"
  op: "TensorArrayV3"
  input: "encoder/stack_bidirectional_rnn/cell_0/bidirectional_rnn/bw/bw/strided_slice"
  attr {
    key: "_output_shapes"
    value {
      list {
        shape {
          dim {
            size: 2
          }
        }
        shape {
        }
      }
    }
  }
  attr {
    key: "clear_after_read"
    value {
      b: true
    }
  }
  attr {
    key: "dtype"
    value {
      type: DT_FLOAT
    }
  }
  attr {
    key: "dynamic_size"
    value {
      b: false
    }
  }
  attr {
    key: "element_shape"
    value {
      shape {
        unknown_rank: true
      }
    }
  }
  attr {
    key: "tensor_array_name"
    value {
      s: "encoder/stack_bidirectional_rnn/cell_0/bidirectional_rnn/bw/bw/dynamic_rnn/output_0"
    }
  }
}
node {
  name: "encoder/stack_bidirectional_rnn/cell_0/bidirectional_rnn/bw/bw/TensorArray_1"
  op: "TensorArrayV3"
  input: "encoder/stack_bidirectional_rnn/cell_0/bidirectional_rnn/bw/bw/strided_slice"
  attr {
    key: "_output_shapes"
    value {
      list {
        shape {
          dim {
            size: 2
          }
        }
        shape {
        }
      }
    }
  }
  attr {
    key: "clear_after_read"
    value {
      b: true
    }
  }
  attr {
    key: "dtype"
    value {
      type: DT_FLOAT
    }
  }
  attr {
    key: "dynamic_size"
    value {
      b: false
    }
  }
  attr {
    key: "element_shape"
    value {
      shape {
        unknown_rank: true
      }
    }
  }
  attr {
    key: "tensor_array_name"
    value {
      s: "encoder/stack_bidirectional_rnn/cell_0/bidirectional_rnn/bw/bw/dynamic_rnn/input_0"
    }
  }
}
node {
  name: "encoder/stack_bidirectional_rnn/cell_0/bidirectional_rnn/bw/bw/TensorArrayUnstack/Shape"
  op: "Const"
  input: "^add"
  attr {
    key: "_output_shapes"
    value {
      list {
        shape {
          dim {
            size: 3
          }
        }
      }
    }
  }
  attr {
    key: "dtype"
    value {
      type: DT_INT32
    }
  }
  attr {
    key: "value"
    value {
      tensor {
        dtype: DT_INT32
        tensor_shape {
          dim {
            size: 3
          }
        }
        tensor_content: "\004\000\000\000\003\000\000\000\007\000\000\000"
      }
    }
  }
}
node {
  name: "encoder/stack_bidirectional_rnn/cell_0/bidirectional_rnn/bw/bw/TensorArrayUnstack/strided_slice/stack"
  op: "Const"
  input: "^add"
  attr {
    key: "_output_shapes"
    value {
      list {
        shape {
          dim {
            size: 1
          }
        }
      }
    }
  }
  attr {
    key: "dtype"
    value {
      type: DT_INT32
    }
  }
  attr {
    key: "value"
    value {
      tensor {
        dtype: DT_INT32
        tensor_shape {
          dim {
            size: 1
          }
        }
        int_val: 0
      }
    }
  }
}
node {
  name: "encoder/stack_bidirectional_rnn/cell_0/bidirectional_rnn/bw/bw/TensorArrayUnstack/strided_slice/stack_1"
  op: "Const"
  input: "^add"
  attr {
    key: "_output_shapes"
    value {
      list {
        shape {
          dim {
            size: 1
          }
        }
      }
    }
  }
  attr {
    key: "dtype"
    value {
      type: DT_INT32
    }
  }
  attr {
    key: "value"
    value {
      tensor {
        dtype: DT_INT32
        tensor_shape {
          dim {
            size: 1
          }
        }
        int_val: 1
      }
    }
  }
}
node {
  name: "encoder/stack_bidirectional_rnn/cell_0/bidirectional_rnn/bw/bw/TensorArrayUnstack/strided_slice/stack_2"
  op: "Const"
  input: "^add"
  attr {
    key: "_output_shapes"
    value {
      list {
        shape {
          dim {
            size: 1
          }
        }
      }
    }
  }
  attr {
    key: "dtype"
    value {
      type: DT_INT32
    }
  }
  attr {
    key: "value"
    value {
      tensor {
        dtype: DT_INT32
        tensor_shape {
          dim {
            size: 1
          }
        }
        int_val: 1
      }
    }
  }
}
node {
  name: "encoder/stack_bidirectional_rnn/cell_0/bidirectional_rnn/bw/bw/TensorArrayUnstack/strided_slice"
  op: "StridedSlice"
  input: "encoder/stack_bidirectional_rnn/cell_0/bidirectional_rnn/bw/bw/TensorArrayUnstack/Shape"
  input: "encoder/stack_bidirectional_rnn/cell_0/bidirectional_rnn/bw/bw/TensorArrayUnstack/strided_slice/stack"
  input: "encoder/stack_bidirectional_rnn/cell_0/bidirectional_rnn/bw/bw/TensorArrayUnstack/strided_slice/stack_1"
  input: "encoder/stack_bidirectional_rnn/cell_0/bidirectional_rnn/bw/bw/TensorArrayUnstack/strided_slice/stack_2"
  attr {
    key: "Index"
    value {
      type: DT_INT32
    }
  }
  attr {
    key: "T"
    value {
      type: DT_INT32
    }
  }
  attr {
    key: "_output_shapes"
    value {
      list {
        shape {
        }
      }
    }
  }
  attr {
    key: "begin_mask"
    value {
      i: 0
    }
  }
  attr {
    key: "ellipsis_mask"
    value {
      i: 0
    }
  }
  attr {
    key: "end_mask"
    value {
      i: 0
    }
  }
  attr {
    key: "new_axis_mask"
    value {
      i: 0
    }
  }
  attr {
    key: "shrink_axis_mask"
    value {
      i: 1
    }
  }
}
node {
  name: "encoder/stack_bidirectional_rnn/cell_0/bidirectional_rnn/bw/bw/TensorArrayUnstack/range/start"
  op: "Const"
  input: "^add"
  attr {
    key: "_output_shapes"
    value {
      list {
        shape {
        }
      }
    }
  }
  attr {
    key: "dtype"
    value {
      type: DT_INT32
    }
  }
  attr {
    key: "value"
    value {
      tensor {
        dtype: DT_INT32
        tensor_shape {
        }
        int_val: 0
      }
    }
  }
}
node {
  name: "encoder/stack_bidirectional_rnn/cell_0/bidirectional_rnn/bw/bw/TensorArrayUnstack/range/delta"
  op: "Const"
  input: "^add"
  attr {
    key: "_output_shapes"
    value {
      list {
        shape {
        }
      }
    }
  }
  attr {
    key: "dtype"
    value {
      type: DT_INT32
    }
  }
  attr {
    key: "value"
    value {
      tensor {
        dtype: DT_INT32
        tensor_shape {
        }
        int_val: 1
      }
    }
  }
}
node {
  name: "encoder/stack_bidirectional_rnn/cell_0/bidirectional_rnn/bw/bw/TensorArrayUnstack/range"
  op: "Range"
  input: "encoder/stack_bidirectional_rnn/cell_0/bidirectional_rnn/bw/bw/TensorArrayUnstack/range/start"
  input: "encoder/stack_bidirectional_rnn/cell_0/bidirectional_rnn/bw/bw/TensorArrayUnstack/strided_slice"
  input: "encoder/stack_bidirectional_rnn/cell_0/bidirectional_rnn/bw/bw/TensorArrayUnstack/range/delta"
  attr {
    key: "Tidx"
    value {
      type: DT_INT32
    }
  }
  attr {
    key: "_output_shapes"
    value {
      list {
        shape {
          dim {
            size: -1
          }
        }
      }
    }
  }
}
node {
  name: "encoder/stack_bidirectional_rnn/cell_0/bidirectional_rnn/bw/bw/TensorArrayUnstack/TensorArrayScatter/TensorArrayScatterV3"
  op: "TensorArrayScatterV3"
  input: "encoder/stack_bidirectional_rnn/cell_0/bidirectional_rnn/bw/bw/TensorArray_1"
  input: "encoder/stack_bidirectional_rnn/cell_0/bidirectional_rnn/bw/bw/TensorArrayUnstack/range"
  input: "encoder/stack_bidirectional_rnn/cell_0/bidirectional_rnn/bw/transpose"
  input: "encoder/stack_bidirectional_rnn/cell_0/bidirectional_rnn/bw/bw/TensorArray_1:1"
  attr {
    key: "T"
    value {
      type: DT_FLOAT
    }
  }
  attr {
    key: "_class"
    value {
      list {
        s: "loc:@encoder/stack_bidirectional_rnn/cell_0/bidirectional_rnn/bw/transpose"
      }
    }
  }
  attr {
    key: "_output_shapes"
    value {
      list {
        shape {
        }
      }
    }
  }
}
node {
  name: "encoder/stack_bidirectional_rnn/cell_0/bidirectional_rnn/bw/bw/while/Enter"
  op: "Enter"
  input: "encoder/stack_bidirectional_rnn/cell_0/bidirectional_rnn/bw/bw/time"
  attr {
    key: "T"
    value {
      type: DT_INT32
    }
  }
  attr {
    key: "_output_shapes"
    value {
      list {
        shape {
        }
      }
    }
  }
  attr {
    key: "frame_name"
    value {
      s: "encoder/stack_bidirectional_rnn/cell_0/bidirectional_rnn/bw/bw/while/while_context"
    }
  }
  attr {
    key: "is_constant"
    value {
      b: false
    }
  }
  attr {
    key: "parallel_iterations"
    value {
      i: 32
    }
  }
}
node {
  name: "encoder/stack_bidirectional_rnn/cell_0/bidirectional_rnn/bw/bw/while/Enter_1"
  op: "Enter"
  input: "encoder/stack_bidirectional_rnn/cell_0/bidirectional_rnn/bw/bw/TensorArray:1"
  attr {
    key: "T"
    value {
      type: DT_FLOAT
    }
  }
  attr {
    key: "_output_shapes"
    value {
      list {
        shape {
        }
      }
    }
  }
  attr {
    key: "frame_name"
    value {
      s: "encoder/stack_bidirectional_rnn/cell_0/bidirectional_rnn/bw/bw/while/while_context"
    }
  }
  attr {
    key: "is_constant"
    value {
      b: false
    }
  }
  attr {
    key: "parallel_iterations"
    value {
      i: 32
    }
  }
}
node {
  name: "encoder/stack_bidirectional_rnn/cell_0/bidirectional_rnn/bw/bw/while/Enter_2"
  op: "Enter"
  input: "encoder/stack_bidirectional_rnn/cell_0/bidirectional_rnn/bw/bw/BasicLSTMCellZeroState/zeros"
  attr {
    key: "T"
    value {
      type: DT_FLOAT
    }
  }
  attr {
    key: "_output_shapes"
    value {
      list {
        shape {
          dim {
            size: 3
          }
          dim {
            size: 7
          }
        }
      }
    }
  }
  attr {
    key: "frame_name"
    value {
      s: "encoder/stack_bidirectional_rnn/cell_0/bidirectional_rnn/bw/bw/while/while_context"
    }
  }
  attr {
    key: "is_constant"
    value {
      b: false
    }
  }
  attr {
    key: "parallel_iterations"
    value {
      i: 32
    }
  }
}
node {
  name: "encoder/stack_bidirectional_rnn/cell_0/bidirectional_rnn/bw/bw/while/Enter_3"
  op: "Enter"
  input: "encoder/stack_bidirectional_rnn/cell_0/bidirectional_rnn/bw/bw/BasicLSTMCellZeroState/zeros_1"
  attr {
    key: "T"
    value {
      type: DT_FLOAT
    }
  }
  attr {
    key: "_output_shapes"
    value {
      list {
        shape {
          dim {
            size: 3
          }
          dim {
            size: 7
          }
        }
      }
    }
  }
  attr {
    key: "frame_name"
    value {
      s: "encoder/stack_bidirectional_rnn/cell_0/bidirectional_rnn/bw/bw/while/while_context"
    }
  }
  attr {
    key: "is_constant"
    value {
      b: false
    }
  }
  attr {
    key: "parallel_iterations"
    value {
      i: 32
    }
  }
}
node {
  name: "encoder/stack_bidirectional_rnn/cell_0/bidirectional_rnn/bw/bw/while/Merge"
  op: "Merge"
  input: "encoder/stack_bidirectional_rnn/cell_0/bidirectional_rnn/bw/bw/while/Enter"
  input: "encoder/stack_bidirectional_rnn/cell_0/bidirectional_rnn/bw/bw/while/NextIteration"
  attr {
    key: "N"
    value {
      i: 2
    }
  }
  attr {
    key: "T"
    value {
      type: DT_INT32
    }
  }
  attr {
    key: "_output_shapes"
    value {
      list {
        shape {
        }
        shape {
        }
      }
    }
  }
}
node {
  name: "encoder/stack_bidirectional_rnn/cell_0/bidirectional_rnn/bw/bw/while/Merge_1"
  op: "Merge"
  input: "encoder/stack_bidirectional_rnn/cell_0/bidirectional_rnn/bw/bw/while/Enter_1"
  input: "encoder/stack_bidirectional_rnn/cell_0/bidirectional_rnn/bw/bw/while/NextIteration_1"
  attr {
    key: "N"
    value {
      i: 2
    }
  }
  attr {
    key: "T"
    value {
      type: DT_FLOAT
    }
  }
  attr {
    key: "_output_shapes"
    value {
      list {
        shape {
        }
        shape {
        }
      }
    }
  }
}
node {
  name: "encoder/stack_bidirectional_rnn/cell_0/bidirectional_rnn/bw/bw/while/Merge_2"
  op: "Merge"
  input: "encoder/stack_bidirectional_rnn/cell_0/bidirectional_rnn/bw/bw/while/Enter_2"
  input: "encoder/stack_bidirectional_rnn/cell_0/bidirectional_rnn/bw/bw/while/NextIteration_2"
  attr {
    key: "N"
    value {
      i: 2
    }
  }
  attr {
    key: "T"
    value {
      type: DT_FLOAT
    }
  }
  attr {
    key: "_output_shapes"
    value {
      list {
        shape {
          dim {
            size: 3
          }
          dim {
            size: 7
          }
        }
        shape {
        }
      }
    }
  }
}
node {
  name: "encoder/stack_bidirectional_rnn/cell_0/bidirectional_rnn/bw/bw/while/Merge_3"
  op: "Merge"
  input: "encoder/stack_bidirectional_rnn/cell_0/bidirectional_rnn/bw/bw/while/Enter_3"
  input: "encoder/stack_bidirectional_rnn/cell_0/bidirectional_rnn/bw/bw/while/NextIteration_3"
  attr {
    key: "N"
    value {
      i: 2
    }
  }
  attr {
    key: "T"
    value {
      type: DT_FLOAT
    }
  }
  attr {
    key: "_output_shapes"
    value {
      list {
        shape {
          dim {
            size: 3
          }
          dim {
            size: 7
          }
        }
        shape {
        }
      }
    }
  }
}
node {
  name: "encoder/stack_bidirectional_rnn/cell_0/bidirectional_rnn/bw/bw/while/Less/Enter"
  op: "Enter"
  input: "encoder/stack_bidirectional_rnn/cell_0/bidirectional_rnn/bw/bw/strided_slice"
  attr {
    key: "T"
    value {
      type: DT_INT32
    }
  }
  attr {
    key: "_output_shapes"
    value {
      list {
        shape {
        }
      }
    }
  }
  attr {
    key: "frame_name"
    value {
      s: "encoder/stack_bidirectional_rnn/cell_0/bidirectional_rnn/bw/bw/while/while_context"
    }
  }
  attr {
    key: "is_constant"
    value {
      b: true
    }
  }
  attr {
    key: "parallel_iterations"
    value {
      i: 32
    }
  }
}
node {
  name: "encoder/stack_bidirectional_rnn/cell_0/bidirectional_rnn/bw/bw/while/Less"
  op: "Less"
  input: "encoder/stack_bidirectional_rnn/cell_0/bidirectional_rnn/bw/bw/while/Merge"
  input: "encoder/stack_bidirectional_rnn/cell_0/bidirectional_rnn/bw/bw/while/Less/Enter"
  attr {
    key: "T"
    value {
      type: DT_INT32
    }
  }
  attr {
    key: "_output_shapes"
    value {
      list {
        shape {
        }
      }
    }
  }
}
node {
  name: "encoder/stack_bidirectional_rnn/cell_0/bidirectional_rnn/bw/bw/while/LoopCond"
  op: "LoopCond"
  input: "encoder/stack_bidirectional_rnn/cell_0/bidirectional_rnn/bw/bw/while/Less"
  attr {
    key: "_output_shapes"
    value {
      list {
        shape {
        }
      }
    }
  }
}
node {
  name: "encoder/stack_bidirectional_rnn/cell_0/bidirectional_rnn/bw/bw/while/Switch"
  op: "Switch"
  input: "encoder/stack_bidirectional_rnn/cell_0/bidirectional_rnn/bw/bw/while/Merge"
  input: "encoder/stack_bidirectional_rnn/cell_0/bidirectional_rnn/bw/bw/while/LoopCond"
  attr {
    key: "T"
    value {
      type: DT_INT32
    }
  }
  attr {
    key: "_class"
    value {
      list {
        s: "loc:@encoder/stack_bidirectional_rnn/cell_0/bidirectional_rnn/bw/bw/while/Merge"
      }
    }
  }
  attr {
    key: "_output_shapes"
    value {
      list {
        shape {
        }
        shape {
        }
      }
    }
  }
}
node {
  name: "encoder/stack_bidirectional_rnn/cell_0/bidirectional_rnn/bw/bw/while/Switch_1"
  op: "Switch"
  input: "encoder/stack_bidirectional_rnn/cell_0/bidirectional_rnn/bw/bw/while/Merge_1"
  input: "encoder/stack_bidirectional_rnn/cell_0/bidirectional_rnn/bw/bw/while/LoopCond"
  attr {
    key: "T"
    value {
      type: DT_FLOAT
    }
  }
  attr {
    key: "_class"
    value {
      list {
        s: "loc:@encoder/stack_bidirectional_rnn/cell_0/bidirectional_rnn/bw/bw/while/Merge_1"
      }
    }
  }
  attr {
    key: "_output_shapes"
    value {
      list {
        shape {
        }
        shape {
        }
      }
    }
  }
}
node {
  name: "encoder/stack_bidirectional_rnn/cell_0/bidirectional_rnn/bw/bw/while/Switch_2"
  op: "Switch"
  input: "encoder/stack_bidirectional_rnn/cell_0/bidirectional_rnn/bw/bw/while/Merge_2"
  input: "encoder/stack_bidirectional_rnn/cell_0/bidirectional_rnn/bw/bw/while/LoopCond"
  attr {
    key: "T"
    value {
      type: DT_FLOAT
    }
  }
  attr {
    key: "_class"
    value {
      list {
        s: "loc:@encoder/stack_bidirectional_rnn/cell_0/bidirectional_rnn/bw/bw/while/Merge_2"
      }
    }
  }
  attr {
    key: "_output_shapes"
    value {
      list {
        shape {
          dim {
            size: 3
          }
          dim {
            size: 7
          }
        }
        shape {
          dim {
            size: 3
          }
          dim {
            size: 7
          }
        }
      }
    }
  }
}
node {
  name: "encoder/stack_bidirectional_rnn/cell_0/bidirectional_rnn/bw/bw/while/Switch_3"
  op: "Switch"
  input: "encoder/stack_bidirectional_rnn/cell_0/bidirectional_rnn/bw/bw/while/Merge_3"
  input: "encoder/stack_bidirectional_rnn/cell_0/bidirectional_rnn/bw/bw/while/LoopCond"
  attr {
    key: "T"
    value {
      type: DT_FLOAT
    }
  }
  attr {
    key: "_class"
    value {
      list {
        s: "loc:@encoder/stack_bidirectional_rnn/cell_0/bidirectional_rnn/bw/bw/while/Merge_3"
      }
    }
  }
  attr {
    key: "_output_shapes"
    value {
      list {
        shape {
          dim {
            size: 3
          }
          dim {
            size: 7
          }
        }
        shape {
          dim {
            size: 3
          }
          dim {
            size: 7
          }
        }
      }
    }
  }
}
node {
  name: "encoder/stack_bidirectional_rnn/cell_0/bidirectional_rnn/bw/bw/while/Identity"
  op: "Identity"
  input: "encoder/stack_bidirectional_rnn/cell_0/bidirectional_rnn/bw/bw/while/Switch:1"
  attr {
    key: "T"
    value {
      type: DT_INT32
    }
  }
  attr {
    key: "_output_shapes"
    value {
      list {
        shape {
        }
      }
    }
  }
}
node {
  name: "encoder/stack_bidirectional_rnn/cell_0/bidirectional_rnn/bw/bw/while/Identity_1"
  op: "Identity"
  input: "encoder/stack_bidirectional_rnn/cell_0/bidirectional_rnn/bw/bw/while/Switch_1:1"
  attr {
    key: "T"
    value {
      type: DT_FLOAT
    }
  }
  attr {
    key: "_output_shapes"
    value {
      list {
        shape {
        }
      }
    }
  }
}
node {
  name: "encoder/stack_bidirectional_rnn/cell_0/bidirectional_rnn/bw/bw/while/Identity_2"
  op: "Identity"
  input: "encoder/stack_bidirectional_rnn/cell_0/bidirectional_rnn/bw/bw/while/Switch_2:1"
  attr {
    key: "T"
    value {
      type: DT_FLOAT
    }
  }
  attr {
    key: "_output_shapes"
    value {
      list {
        shape {
          dim {
            size: 3
          }
          dim {
            size: 7
          }
        }
      }
    }
  }
}
node {
  name: "encoder/stack_bidirectional_rnn/cell_0/bidirectional_rnn/bw/bw/while/Identity_3"
  op: "Identity"
  input: "encoder/stack_bidirectional_rnn/cell_0/bidirectional_rnn/bw/bw/while/Switch_3:1"
  attr {
    key: "T"
    value {
      type: DT_FLOAT
    }
  }
  attr {
    key: "_output_shapes"
    value {
      list {
        shape {
          dim {
            size: 3
          }
          dim {
            size: 7
          }
        }
      }
    }
  }
}
node {
  name: "encoder/stack_bidirectional_rnn/cell_0/bidirectional_rnn/bw/bw/while/TensorArrayReadV3/Enter"
  op: "Enter"
  input: "encoder/stack_bidirectional_rnn/cell_0/bidirectional_rnn/bw/bw/TensorArray_1"
  attr {
    key: "T"
    value {
      type: DT_RESOURCE
    }
  }
  attr {
    key: "_output_shapes"
    value {
      list {
        shape {
          dim {
            size: 2
          }
        }
      }
    }
  }
  attr {
    key: "frame_name"
    value {
      s: "encoder/stack_bidirectional_rnn/cell_0/bidirectional_rnn/bw/bw/while/while_context"
    }
  }
  attr {
    key: "is_constant"
    value {
      b: true
    }
  }
  attr {
    key: "parallel_iterations"
    value {
      i: 32
    }
  }
}
node {
  name: "encoder/stack_bidirectional_rnn/cell_0/bidirectional_rnn/bw/bw/while/TensorArrayReadV3/Enter_1"
  op: "Enter"
  input: "encoder/stack_bidirectional_rnn/cell_0/bidirectional_rnn/bw/bw/TensorArrayUnstack/TensorArrayScatter/TensorArrayScatterV3"
  attr {
    key: "T"
    value {
      type: DT_FLOAT
    }
  }
  attr {
    key: "_output_shapes"
    value {
      list {
        shape {
        }
      }
    }
  }
  attr {
    key: "frame_name"
    value {
      s: "encoder/stack_bidirectional_rnn/cell_0/bidirectional_rnn/bw/bw/while/while_context"
    }
  }
  attr {
    key: "is_constant"
    value {
      b: true
    }
  }
  attr {
    key: "parallel_iterations"
    value {
      i: 32
    }
  }
}
node {
  name: "encoder/stack_bidirectional_rnn/cell_0/bidirectional_rnn/bw/bw/while/TensorArrayReadV3"
  op: "TensorArrayReadV3"
  input: "encoder/stack_bidirectional_rnn/cell_0/bidirectional_rnn/bw/bw/while/TensorArrayReadV3/Enter"
  input: "encoder/stack_bidirectional_rnn/cell_0/bidirectional_rnn/bw/bw/while/Identity"
  input: "encoder/stack_bidirectional_rnn/cell_0/bidirectional_rnn/bw/bw/while/TensorArrayReadV3/Enter_1"
  attr {
    key: "_output_shapes"
    value {
      list {
        shape {
          dim {
            size: 3
          }
          dim {
            size: 7
          }
        }
      }
    }
  }
  attr {
    key: "dtype"
    value {
      type: DT_FLOAT
    }
  }
}
node {
  name: "encoder/stack_bidirectional_rnn/cell_0/bidirectional_rnn/bw/basic_lstm_cell/kernel/Initializer/random_uniform/shape"
  op: "Const"
  attr {
    key: "_class"
    value {
      list {
        s: "loc:@encoder/stack_bidirectional_rnn/cell_0/bidirectional_rnn/bw/basic_lstm_cell/kernel"
      }
    }
  }
  attr {
    key: "_output_shapes"
    value {
      list {
        shape {
          dim {
            size: 2
          }
        }
      }
    }
  }
  attr {
    key: "dtype"
    value {
      type: DT_INT32
    }
  }
  attr {
    key: "value"
    value {
      tensor {
        dtype: DT_INT32
        tensor_shape {
          dim {
            size: 2
          }
        }
        tensor_content: "\016\000\000\000\034\000\000\000"
      }
    }
  }
}
node {
  name: "encoder/stack_bidirectional_rnn/cell_0/bidirectional_rnn/bw/basic_lstm_cell/kernel/Initializer/random_uniform/min"
  op: "Const"
  attr {
    key: "_class"
    value {
      list {
        s: "loc:@encoder/stack_bidirectional_rnn/cell_0/bidirectional_rnn/bw/basic_lstm_cell/kernel"
      }
    }
  }
  attr {
    key: "_output_shapes"
    value {
      list {
        shape {
        }
      }
    }
  }
  attr {
    key: "dtype"
    value {
      type: DT_FLOAT
    }
  }
  attr {
    key: "value"
    value {
      tensor {
        dtype: DT_FLOAT
        tensor_shape {
        }
        float_val: -0.37796446681022644
      }
    }
  }
}
node {
  name: "encoder/stack_bidirectional_rnn/cell_0/bidirectional_rnn/bw/basic_lstm_cell/kernel/Initializer/random_uniform/max"
  op: "Const"
  attr {
    key: "_class"
    value {
      list {
        s: "loc:@encoder/stack_bidirectional_rnn/cell_0/bidirectional_rnn/bw/basic_lstm_cell/kernel"
      }
    }
  }
  attr {
    key: "_output_shapes"
    value {
      list {
        shape {
        }
      }
    }
  }
  attr {
    key: "dtype"
    value {
      type: DT_FLOAT
    }
  }
  attr {
    key: "value"
    value {
      tensor {
        dtype: DT_FLOAT
        tensor_shape {
        }
        float_val: 0.37796446681022644
      }
    }
  }
}
node {
  name: "encoder/stack_bidirectional_rnn/cell_0/bidirectional_rnn/bw/basic_lstm_cell/kernel/Initializer/random_uniform/RandomUniform"
  op: "RandomUniform"
  input: "encoder/stack_bidirectional_rnn/cell_0/bidirectional_rnn/bw/basic_lstm_cell/kernel/Initializer/random_uniform/shape"
  attr {
    key: "T"
    value {
      type: DT_INT32
    }
  }
  attr {
    key: "_class"
    value {
      list {
        s: "loc:@encoder/stack_bidirectional_rnn/cell_0/bidirectional_rnn/bw/basic_lstm_cell/kernel"
      }
    }
  }
  attr {
    key: "_output_shapes"
    value {
      list {
        shape {
          dim {
            size: 14
          }
          dim {
            size: 28
          }
        }
      }
    }
  }
  attr {
    key: "dtype"
    value {
      type: DT_FLOAT
    }
  }
  attr {
    key: "seed"
    value {
      i: 0
    }
  }
  attr {
    key: "seed2"
    value {
      i: 0
    }
  }
}
node {
  name: "encoder/stack_bidirectional_rnn/cell_0/bidirectional_rnn/bw/basic_lstm_cell/kernel/Initializer/random_uniform/sub"
  op: "Sub"
  input: "encoder/stack_bidirectional_rnn/cell_0/bidirectional_rnn/bw/basic_lstm_cell/kernel/Initializer/random_uniform/max"
  input: "encoder/stack_bidirectional_rnn/cell_0/bidirectional_rnn/bw/basic_lstm_cell/kernel/Initializer/random_uniform/min"
  attr {
    key: "T"
    value {
      type: DT_FLOAT
    }
  }
  attr {
    key: "_class"
    value {
      list {
        s: "loc:@encoder/stack_bidirectional_rnn/cell_0/bidirectional_rnn/bw/basic_lstm_cell/kernel"
      }
    }
  }
  attr {
    key: "_output_shapes"
    value {
      list {
        shape {
        }
      }
    }
  }
}
node {
  name: "encoder/stack_bidirectional_rnn/cell_0/bidirectional_rnn/bw/basic_lstm_cell/kernel/Initializer/random_uniform/mul"
  op: "Mul"
  input: "encoder/stack_bidirectional_rnn/cell_0/bidirectional_rnn/bw/basic_lstm_cell/kernel/Initializer/random_uniform/RandomUniform"
  input: "encoder/stack_bidirectional_rnn/cell_0/bidirectional_rnn/bw/basic_lstm_cell/kernel/Initializer/random_uniform/sub"
  attr {
    key: "T"
    value {
      type: DT_FLOAT
    }
  }
  attr {
    key: "_class"
    value {
      list {
        s: "loc:@encoder/stack_bidirectional_rnn/cell_0/bidirectional_rnn/bw/basic_lstm_cell/kernel"
      }
    }
  }
  attr {
    key: "_output_shapes"
    value {
      list {
        shape {
          dim {
            size: 14
          }
          dim {
            size: 28
          }
        }
      }
    }
  }
}
node {
  name: "encoder/stack_bidirectional_rnn/cell_0/bidirectional_rnn/bw/basic_lstm_cell/kernel/Initializer/random_uniform"
  op: "Add"
  input: "encoder/stack_bidirectional_rnn/cell_0/bidirectional_rnn/bw/basic_lstm_cell/kernel/Initializer/random_uniform/mul"
  input: "encoder/stack_bidirectional_rnn/cell_0/bidirectional_rnn/bw/basic_lstm_cell/kernel/Initializer/random_uniform/min"
  attr {
    key: "T"
    value {
      type: DT_FLOAT
    }
  }
  attr {
    key: "_class"
    value {
      list {
        s: "loc:@encoder/stack_bidirectional_rnn/cell_0/bidirectional_rnn/bw/basic_lstm_cell/kernel"
      }
    }
  }
  attr {
    key: "_output_shapes"
    value {
      list {
        shape {
          dim {
            size: 14
          }
          dim {
            size: 28
          }
        }
      }
    }
  }
}
node {
  name: "encoder/stack_bidirectional_rnn/cell_0/bidirectional_rnn/bw/basic_lstm_cell/kernel"
  op: "VariableV2"
  attr {
    key: "_class"
    value {
      list {
        s: "loc:@encoder/stack_bidirectional_rnn/cell_0/bidirectional_rnn/bw/basic_lstm_cell/kernel"
      }
    }
  }
  attr {
    key: "_output_shapes"
    value {
      list {
        shape {
          dim {
            size: 14
          }
          dim {
            size: 28
          }
        }
      }
    }
  }
  attr {
    key: "container"
    value {
      s: ""
    }
  }
  attr {
    key: "dtype"
    value {
      type: DT_FLOAT
    }
  }
  attr {
    key: "shape"
    value {
      shape {
        dim {
          size: 14
        }
        dim {
          size: 28
        }
      }
    }
  }
  attr {
    key: "shared_name"
    value {
      s: ""
    }
  }
}
node {
  name: "encoder/stack_bidirectional_rnn/cell_0/bidirectional_rnn/bw/basic_lstm_cell/kernel/Assign"
  op: "Assign"
  input: "encoder/stack_bidirectional_rnn/cell_0/bidirectional_rnn/bw/basic_lstm_cell/kernel"
  input: "encoder/stack_bidirectional_rnn/cell_0/bidirectional_rnn/bw/basic_lstm_cell/kernel/Initializer/random_uniform"
  attr {
    key: "T"
    value {
      type: DT_FLOAT
    }
  }
  attr {
    key: "_class"
    value {
      list {
        s: "loc:@encoder/stack_bidirectional_rnn/cell_0/bidirectional_rnn/bw/basic_lstm_cell/kernel"
      }
    }
  }
  attr {
    key: "_output_shapes"
    value {
      list {
        shape {
          dim {
            size: 14
          }
          dim {
            size: 28
          }
        }
      }
    }
  }
  attr {
    key: "use_locking"
    value {
      b: true
    }
  }
  attr {
    key: "validate_shape"
    value {
      b: true
    }
  }
}
node {
  name: "encoder/stack_bidirectional_rnn/cell_0/bidirectional_rnn/bw/basic_lstm_cell/kernel/read"
  op: "Identity"
  input: "encoder/stack_bidirectional_rnn/cell_0/bidirectional_rnn/bw/basic_lstm_cell/kernel"
  attr {
    key: "T"
    value {
      type: DT_FLOAT
    }
  }
  attr {
    key: "_output_shapes"
    value {
      list {
        shape {
          dim {
            size: 14
          }
          dim {
            size: 28
          }
        }
      }
    }
  }
}
node {
  name: "encoder/stack_bidirectional_rnn/cell_0/bidirectional_rnn/bw/basic_lstm_cell/bias/Initializer/Const"
  op: "Const"
  attr {
    key: "_class"
    value {
      list {
        s: "loc:@encoder/stack_bidirectional_rnn/cell_0/bidirectional_rnn/bw/basic_lstm_cell/bias"
      }
    }
  }
  attr {
    key: "_output_shapes"
    value {
      list {
        shape {
          dim {
            size: 28
          }
        }
      }
    }
  }
  attr {
    key: "dtype"
    value {
      type: DT_FLOAT
    }
  }
  attr {
    key: "value"
    value {
      tensor {
        dtype: DT_FLOAT
        tensor_shape {
          dim {
            size: 28
          }
        }
        float_val: 0.0
      }
    }
  }
}
node {
  name: "encoder/stack_bidirectional_rnn/cell_0/bidirectional_rnn/bw/basic_lstm_cell/bias"
  op: "VariableV2"
  attr {
    key: "_class"
    value {
      list {
        s: "loc:@encoder/stack_bidirectional_rnn/cell_0/bidirectional_rnn/bw/basic_lstm_cell/bias"
      }
    }
  }
  attr {
    key: "_output_shapes"
    value {
      list {
        shape {
          dim {
            size: 28
          }
        }
      }
    }
  }
  attr {
    key: "container"
    value {
      s: ""
    }
  }
  attr {
    key: "dtype"
    value {
      type: DT_FLOAT
    }
  }
  attr {
    key: "shape"
    value {
      shape {
        dim {
          size: 28
        }
      }
    }
  }
  attr {
    key: "shared_name"
    value {
      s: ""
    }
  }
}
node {
  name: "encoder/stack_bidirectional_rnn/cell_0/bidirectional_rnn/bw/basic_lstm_cell/bias/Assign"
  op: "Assign"
  input: "encoder/stack_bidirectional_rnn/cell_0/bidirectional_rnn/bw/basic_lstm_cell/bias"
  input: "encoder/stack_bidirectional_rnn/cell_0/bidirectional_rnn/bw/basic_lstm_cell/bias/Initializer/Const"
  attr {
    key: "T"
    value {
      type: DT_FLOAT
    }
  }
  attr {
    key: "_class"
    value {
      list {
        s: "loc:@encoder/stack_bidirectional_rnn/cell_0/bidirectional_rnn/bw/basic_lstm_cell/bias"
      }
    }
  }
  attr {
    key: "_output_shapes"
    value {
      list {
        shape {
          dim {
            size: 28
          }
        }
      }
    }
  }
  attr {
    key: "use_locking"
    value {
      b: true
    }
  }
  attr {
    key: "validate_shape"
    value {
      b: true
    }
  }
}
node {
  name: "encoder/stack_bidirectional_rnn/cell_0/bidirectional_rnn/bw/basic_lstm_cell/bias/read"
  op: "Identity"
  input: "encoder/stack_bidirectional_rnn/cell_0/bidirectional_rnn/bw/basic_lstm_cell/bias"
  attr {
    key: "T"
    value {
      type: DT_FLOAT
    }
  }
  attr {
    key: "_output_shapes"
    value {
      list {
        shape {
          dim {
            size: 28
          }
        }
      }
    }
  }
}
node {
  name: "encoder/stack_bidirectional_rnn/cell_0/bidirectional_rnn/bw/bw/while/bw/basic_lstm_cell/concat/axis"
  op: "Const"
  input: "^encoder/stack_bidirectional_rnn/cell_0/bidirectional_rnn/bw/bw/while/Identity"
  attr {
    key: "_output_shapes"
    value {
      list {
…
  }
  attr {
    key: "_output_shapes"
    value {
      list {
        shape {
          dim {
            size: 21
          }
          dim {
            size: 28
          }
        }
      }
    }
  }
  attr {
    key: "use_locking"
    value {
      b: true
    }
  }
  attr {
    key: "validate_shape"
    value {
      b: true
    }
  }
}
node {
  name: "save/RestoreV2_54/tensor_names"
  op: "Const"
  attr {
    key: "_output_shapes"
    value {
      list {
        shape {
          dim {
            size: 1
          }
        }
      }
    }
  }
  attr {
    key: "dtype"
    value {
      type: DT_STRING
    }
  }
  attr {
    key: "value"
    value {
      tensor {
        dtype: DT_STRING
        tensor_shape {
          dim {
            size: 1
          }
        }
        string_val: "train_op/encoder/stack_bidirectional_rnn/cell_2/bidirectional_rnn/fw/basic_lstm_cell/kernel/Adam_1"
      }
    }
  }
}
node {
  name: "save/RestoreV2_54/shape_and_slices"
  op: "Const"
  attr {
    key: "_output_shapes"
    value {
      list {
        shape {
          dim {
            size: 1
          }
        }
      }
    }
  }
  attr {
    key: "dtype"
    value {
      type: DT_STRING
    }
  }
  attr {
    key: "value"
    value {
      tensor {
        dtype: DT_STRING
        tensor_shape {
          dim {
            size: 1
          }
        }
        string_val: ""
      }
    }
  }
}
node {
  name: "save/RestoreV2_54"
  op: "RestoreV2"
  input: "save/Const"
  input: "save/RestoreV2_54/tensor_names"
  input: "save/RestoreV2_54/shape_and_slices"
  attr {
    key: "_output_shapes"
    value {
      list {
        shape {
          unknown_rank: true
        }
      }
    }
  }
  attr {
    key: "dtypes"
    value {
      list {
        type: DT_FLOAT
      }
    }
  }
}
node {
  name: "save/Assign_54"
  op: "Assign"
  input: "train_op/encoder/stack_bidirectional_rnn/cell_2/bidirectional_rnn/fw/basic_lstm_cell/kernel/Adam_1"
  input: "save/RestoreV2_54"
  attr {
    key: "T"
    value {
      type: DT_FLOAT
    }
  }
  attr {
    key: "_class"
    value {
      list {
        s: "loc:@encoder/stack_bidirectional_rnn/cell_2/bidirectional_rnn/fw/basic_lstm_cell/kernel"
      }
    }
  }
  attr {
    key: "_output_shapes"
    value {
      list {
        shape {
          dim {
            size: 21
          }
          dim {
            size: 28
          }
        }
      }
    }
  }
  attr {
    key: "use_locking"
    value {
      b: true
    }
  }
  attr {
    key: "validate_shape"
    value {
      b: true
    }
  }
}
node {
  name: "save/RestoreV2_55/tensor_names"
  op: "Const"
  attr {
    key: "_output_shapes"
    value {
      list {
        shape {
          dim {
            size: 1
          }
        }
      }
    }
  }
  attr {
    key: "dtype"
    value {
      type: DT_STRING
    }
  }
  attr {
    key: "value"
    value {
      tensor {
        dtype: DT_STRING
        tensor_shape {
          dim {
            size: 1
          }
        }
        string_val: "train_op/encoder/stack_bidirectional_rnn/cell_3/bidirectional_rnn/bw/basic_lstm_cell/bias/Adam"
      }
    }
  }
}
node {
  name: "save/RestoreV2_55/shape_and_slices"
  op: "Const"
  attr {
    key: "_output_shapes"
    value {
      list {
        shape {
          dim {
            size: 1
          }
        }
      }
    }
  }
  attr {
    key: "dtype"
    value {
      type: DT_STRING
    }
  }
  attr {
    key: "value"
    value {
      tensor {
        dtype: DT_STRING
        tensor_shape {
          dim {
            size: 1
          }
        }
        string_val: ""
      }
    }
  }
}
node {
  name: "save/RestoreV2_55"
  op: "RestoreV2"
  input: "save/Const"
  input: "save/RestoreV2_55/tensor_names"
  input: "save/RestoreV2_55/shape_and_slices"
  attr {
    key: "_output_shapes"
    value {
      list {
        shape {
          unknown_rank: true
        }
      }
    }
  }
  attr {
    key: "dtypes"
    value {
      list {
        type: DT_FLOAT
      }
    }
  }
}
node {
  name: "save/Assign_55"
  op: "Assign"
  input: "train_op/encoder/stack_bidirectional_rnn/cell_3/bidirectional_rnn/bw/basic_lstm_cell/bias/Adam"
  input: "save/RestoreV2_55"
  attr {
    key: "T"
    value {
      type: DT_FLOAT
    }
  }
  attr {
    key: "_class"
    value {
      list {
        s: "loc:@encoder/stack_bidirectional_rnn/cell_3/bidirectional_rnn/bw/basic_lstm_cell/bias"
      }
    }
  }
  attr {
    key: "_output_shapes"
    value {
      list {
        shape {
          dim {
            size: 28
          }
        }
      }
    }
  }
  attr {
    key: "use_locking"
    value {
      b: true
    }
  }
  attr {
    key: "validate_shape"
    value {
      b: true
    }
  }
}
node {
  name: "save/RestoreV2_56/tensor_names"
  op: "Const"
  attr {
    key: "_output_shapes"
    value {
      list {
        shape {
          dim {
            size: 1
          }
        }
      }
    }
  }
  attr {
    key: "dtype"
    value {
      type: DT_STRING
    }
  }
  attr {
    key: "value"
    value {
      tensor {
        dtype: DT_STRING
        tensor_shape {
          dim {
            size: 1
          }
        }
        string_val: "train_op/encoder/stack_bidirectional_rnn/cell_3/bidirectional_rnn/bw/basic_lstm_cell/bias/Adam_1"
      }
    }
  }
}
node {
  name: "save/RestoreV2_56/shape_and_slices"
  op: "Const"
  attr {
    key: "_output_shapes"
    value {
      list {
        shape {
          dim {
            size: 1
          }
        }
      }
    }
  }
  attr {
    key: "dtype"
    value {
      type: DT_STRING
    }
  }
  attr {
    key: "value"
    value {
      tensor {
        dtype: DT_STRING
        tensor_shape {
          dim {
            size: 1
          }
        }
        string_val: ""
      }
    }
  }
}
node {
  name: "save/RestoreV2_56"
  op: "RestoreV2"
  input: "save/Const"
  input: "save/RestoreV2_56/tensor_names"
  input: "save/RestoreV2_56/shape_and_slices"
  attr {
    key: "_output_shapes"
    value {
      list {
        shape {
          unknown_rank: true
        }
      }
    }
  }
  attr {
    key: "dtypes"
    value {
      list {
        type: DT_FLOAT
      }
    }
  }
}
node {
  name: "save/Assign_56"
  op: "Assign"
  input: "train_op/encoder/stack_bidirectional_rnn/cell_3/bidirectional_rnn/bw/basic_lstm_cell/bias/Adam_1"
  input: "save/RestoreV2_56"
  attr {
    key: "T"
    value {
      type: DT_FLOAT
    }
  }
  attr {
    key: "_class"
    value {
      list {
        s: "loc:@encoder/stack_bidirectional_rnn/cell_3/bidirectional_rnn/bw/basic_lstm_cell/bias"
      }
    }
  }
  attr {
    key: "_output_shapes"
    value {
      list {
        shape {
          dim {
            size: 28
          }
        }
      }
    }
  }
  attr {
    key: "use_locking"
    value {
      b: true
    }
  }
  attr {
    key: "validate_shape"
    value {
      b: true
    }
  }
}
node {
  name: "save/RestoreV2_57/tensor_names"
  op: "Const"
  attr {
    key: "_output_shapes"
    value {
      list {
        shape {
          dim {
            size: 1
          }
        }
      }
    }
  }
  attr {
    key: "dtype"
    value {
      type: DT_STRING
    }
  }
  attr {
    key: "value"
    value {
      tensor {
        dtype: DT_STRING
        tensor_shape {
          dim {
            size: 1
          }
        }
        string_val: "train_op/encoder/stack_bidirectional_rnn/cell_3/bidirectional_rnn/bw/basic_lstm_cell/kernel/Adam"
      }
    }
  }
}
node {
  name: "save/RestoreV2_57/shape_and_slices"
  op: "Const"
  attr {
    key: "_output_shapes"
    value {
      list {
        shape {
          dim {
            size: 1
          }
        }
      }
    }
  }
  attr {
    key: "dtype"
    value {
      type: DT_STRING
    }
  }
  attr {
    key: "value"
    value {
      tensor {
        dtype: DT_STRING
        tensor_shape {
          dim {
            size: 1
          }
        }
        string_val: ""
      }
    }
  }
}
node {
  name: "save/RestoreV2_57"
  op: "RestoreV2"
  input: "save/Const"
  input: "save/RestoreV2_57/tensor_names"
  input: "save/RestoreV2_57/shape_and_slices"
  attr {
    key: "_output_shapes"
    value {
      list {
        shape {
          unknown_rank: true
        }
      }
    }
  }
  attr {
    key: "dtypes"
    value {
      list {
        type: DT_FLOAT
      }
    }
  }
}
node {
  name: "save/Assign_57"
  op: "Assign"
  input: "train_op/encoder/stack_bidirectional_rnn/cell_3/bidirectional_rnn/bw/basic_lstm_cell/kernel/Adam"
  input: "save/RestoreV2_57"
  attr {
    key: "T"
    value {
      type: DT_FLOAT
    }
  }
  attr {
    key: "_class"
    value {
      list {
        s: "loc:@encoder/stack_bidirectional_rnn/cell_3/bidirectional_rnn/bw/basic_lstm_cell/kernel"
      }
    }
  }
  attr {
    key: "_output_shapes"
    value {
      list {
        shape {
          dim {
            size: 21
          }
          dim {
            size: 28
          }
        }
      }
    }
  }
  attr {
    key: "use_locking"
    value {
      b: true
    }
  }
  attr {
    key: "validate_shape"
    value {
      b: true
    }
  }
}
node {
  name: "save/RestoreV2_58/tensor_names"
  op: "Const"
  attr {
    key: "_output_shapes"
    value {
      list {
        shape {
          dim {
            size: 1
          }
        }
      }
    }
  }
  attr {
    key: "dtype"
    value {
      type: DT_STRING
    }
  }
  attr {
    key: "value"
    value {
      tensor {
        dtype: DT_STRING
        tensor_shape {
          dim {
            size: 1
          }
        }
        string_val: "train_op/encoder/stack_bidirectional_rnn/cell_3/bidirectional_rnn/bw/basic_lstm_cell/kernel/Adam_1"
      }
    }
  }
}
node {
  name: "save/RestoreV2_58/shape_and_slices"
  op: "Const"
  attr {
    key: "_output_shapes"
    value {
      list {
        shape {
          dim {
            size: 1
          }
        }
      }
    }
  }
  attr {
    key: "dtype"
    value {
      type: DT_STRING
    }
  }
  attr {
    key: "value"
    value {
      tensor {
        dtype: DT_STRING
        tensor_shape {
          dim {
            size: 1
          }
        }
        string_val: ""
      }
    }
  }
}
node {
  name: "save/RestoreV2_58"
  op: "RestoreV2"
  input: "save/Const"
  input: "save/RestoreV2_58/tensor_names"
  input: "save/RestoreV2_58/shape_and_slices"
  attr {
    key: "_output_shapes"
    value {
      list {
        shape {
          unknown_rank: true
        }
      }
    }
  }
  attr {
    key: "dtypes"
    value {
      list {
        type: DT_FLOAT
      }
    }
  }
}
node {
  name: "save/Assign_58"
  op: "Assign"
  input: "train_op/encoder/stack_bidirectional_rnn/cell_3/bidirectional_rnn/bw/basic_lstm_cell/kernel/Adam_1"
  input: "save/RestoreV2_58"
  attr {
    key: "T"
    value {
      type: DT_FLOAT
    }
  }
  attr {
    key: "_class"
    value {
      list {
        s: "loc:@encoder/stack_bidirectional_rnn/cell_3/bidirectional_rnn/bw/basic_lstm_cell/kernel"
      }
    }
  }
  attr {
    key: "_output_shapes"
    value {
      list {
        shape {
          dim {
            size: 21
          }
          dim {
            size: 28
          }
        }
      }
    }
  }
  attr {
    key: "use_locking"
    value {
      b: true
    }
  }
  attr {
    key: "validate_shape"
    value {
      b: true
    }
  }
}
node {
  name: "save/RestoreV2_59/tensor_names"
  op: "Const"
  attr {
    key: "_output_shapes"
    value {
      list {
        shape {
          dim {
            size: 1
          }
        }
      }
    }
  }
  attr {
    key: "dtype"
    value {
      type: DT_STRING
    }
  }
  attr {
    key: "value"
    value {
      tensor {
        dtype: DT_STRING
        tensor_shape {
          dim {
            size: 1
          }
        }
        string_val: "train_op/encoder/stack_bidirectional_rnn/cell_3/bidirectional_rnn/fw/basic_lstm_cell/bias/Adam"
      }
    }
  }
}
node {
  name: "save/RestoreV2_59/shape_and_slices"
  op: "Const"
  attr {
    key: "_output_shapes"
    value {
      list {
        shape {
          dim {
            size: 1
          }
        }
      }
    }
  }
  attr {
    key: "dtype"
    value {
      type: DT_STRING
    }
  }
  attr {
    key: "value"
    value {
      tensor {
        dtype: DT_STRING
        tensor_shape {
          dim {
            size: 1
          }
        }
        string_val: ""
      }
    }
  }
}
node {
  name: "save/RestoreV2_59"
  op: "RestoreV2"
  input: "save/Const"
  input: "save/RestoreV2_59/tensor_names"
  input: "save/RestoreV2_59/shape_and_slices"
  attr {
    key: "_output_shapes"
    value {
      list {
        shape {
          unknown_rank: true
        }
      }
    }
  }
  attr {
    key: "dtypes"
    value {
      list {
        type: DT_FLOAT
      }
    }
  }
}
node {
  name: "save/Assign_59"
  op: "Assign"
  input: "train_op/encoder/stack_bidirectional_rnn/cell_3/bidirectional_rnn/fw/basic_lstm_cell/bias/Adam"
  input: "save/RestoreV2_59"
  attr {
    key: "T"
    value {
      type: DT_FLOAT
    }
  }
  attr {
    key: "_class"
    value {
      list {
        s: "loc:@encoder/stack_bidirectional_rnn/cell_3/bidirectional_rnn/fw/basic_lstm_cell/bias"
      }
    }
  }
  attr {
    key: "_output_shapes"
    value {
      list {
        shape {
          dim {
            size: 28
          }
        }
      }
    }
  }
  attr {
    key: "use_locking"
    value {
      b: true
    }
  }
  attr {
    key: "validate_shape"
    value {
      b: true
    }
  }
}
node {
  name: "save/RestoreV2_60/tensor_names"
  op: "Const"
  attr {
    key: "_output_shapes"
    value {
      list {
        shape {
          dim {
            size: 1
          }
        }
      }
    }
  }
  attr {
    key: "dtype"
    value {
      type: DT_STRING
    }
  }
  attr {
    key: "value"
    value {
      tensor {
        dtype: DT_STRING
        tensor_shape {
          dim {
            size: 1
          }
        }
        string_val: "train_op/encoder/stack_bidirectional_rnn/cell_3/bidirectional_rnn/fw/basic_lstm_cell/bias/Adam_1"
      }
    }
  }
}
node {
  name: "save/RestoreV2_60/shape_and_slices"
  op: "Const"
  attr {
    key: "_output_shapes"
    value {
      list {
        shape {
          dim {
            size: 1
          }
        }
      }
    }
  }
  attr {
    key: "dtype"
    value {
      type: DT_STRING
    }
  }
  attr {
    key: "value"
    value {
      tensor {
        dtype: DT_STRING
        tensor_shape {
          dim {
            size: 1
          }
        }
        string_val: ""
      }
    }
  }
}
node {
  name: "save/RestoreV2_60"
  op: "RestoreV2"
  input: "save/Const"
  input: "save/RestoreV2_60/tensor_names"
  input: "save/RestoreV2_60/shape_and_slices"
  attr {
    key: "_output_shapes"
    value {
      list {
        shape {
          unknown_rank: true
        }
      }
    }
  }
  attr {
    key: "dtypes"
    value {
      list {
        type: DT_FLOAT
      }
    }
  }
}
node {
  name: "save/Assign_60"
  op: "Assign"
  input: "train_op/encoder/stack_bidirectional_rnn/cell_3/bidirectional_rnn/fw/basic_lstm_cell/bias/Adam_1"
  input: "save/RestoreV2_60"
  attr {
    key: "T"
    value {
      type: DT_FLOAT
    }
  }
  attr {
    key: "_class"
    value {
      list {
        s: "loc:@encoder/stack_bidirectional_rnn/cell_3/bidirectional_rnn/fw/basic_lstm_cell/bias"
      }
    }
  }
  attr {
    key: "_output_shapes"
    value {
      list {
        shape {
          dim {
            size: 28
          }
        }
      }
    }
  }
  attr {
    key: "use_locking"
    value {
      b: true
    }
  }
  attr {
    key: "validate_shape"
    value {
      b: true
    }
  }
}
node {
  name: "save/RestoreV2_61/tensor_names"
  op: "Const"
  attr {
    key: "_output_shapes"
    value {
      list {
        shape {
          dim {
            size: 1
          }
        }
      }
    }
  }
  attr {
    key: "dtype"
    value {
      type: DT_STRING
    }
  }
  attr {
    key: "value"
    value {
      tensor {
        dtype: DT_STRING
        tensor_shape {
          dim {
            size: 1
          }
        }
        string_val: "train_op/encoder/stack_bidirectional_rnn/cell_3/bidirectional_rnn/fw/basic_lstm_cell/kernel/Adam"
      }
    }
  }
}
node {
  name: "save/RestoreV2_61/shape_and_slices"
  op: "Const"
  attr {
    key: "_output_shapes"
    value {
      list {
        shape {
          dim {
            size: 1
          }
        }
      }
    }
  }
  attr {
    key: "dtype"
    value {
      type: DT_STRING
    }
  }
  attr {
    key: "value"
    value {
      tensor {
        dtype: DT_STRING
        tensor_shape {
          dim {
            size: 1
          }
        }
        string_val: ""
      }
    }
  }
}
node {
  name: "save/RestoreV2_61"
  op: "RestoreV2"
  input: "save/Const"
  input: "save/RestoreV2_61/tensor_names"
  input: "save/RestoreV2_61/shape_and_slices"
  attr {
    key: "_output_shapes"
    value {
      list {
        shape {
          unknown_rank: true
        }
      }
    }
  }
  attr {
    key: "dtypes"
    value {
      list {
        type: DT_FLOAT
      }
    }
  }
}
node {
  name: "save/Assign_61"
  op: "Assign"
  input: "train_op/encoder/stack_bidirectional_rnn/cell_3/bidirectional_rnn/fw/basic_lstm_cell/kernel/Adam"
  input: "save/RestoreV2_61"
  attr {
    key: "T"
    value {
      type: DT_FLOAT
    }
  }
  attr {
    key: "_class"
    value {
      list {
        s: "loc:@encoder/stack_bidirectional_rnn/cell_3/bidirectional_rnn/fw/basic_lstm_cell/kernel"
      }
    }
  }
  attr {
    key: "_output_shapes"
    value {
      list {
        shape {
          dim {
            size: 21
          }
          dim {
            size: 28
          }
        }
      }
    }
  }
  attr {
    key: "use_locking"
    value {
      b: true
    }
  }
  attr {
    key: "validate_shape"
    value {
      b: true
    }
  }
}
node {
  name: "save/RestoreV2_62/tensor_names"
  op: "Const"
  attr {
    key: "_output_shapes"
    value {
      list {
        shape {
          dim {
            size: 1
          }
        }
      }
    }
  }
  attr {
    key: "dtype"
    value {
      type: DT_STRING
    }
  }
  attr {
    key: "value"
    value {
      tensor {
        dtype: DT_STRING
        tensor_shape {
          dim {
            size: 1
          }
        }
        string_val: "train_op/encoder/stack_bidirectional_rnn/cell_3/bidirectional_rnn/fw/basic_lstm_cell/kernel/Adam_1"
      }
    }
  }
}
node {
  name: "save/RestoreV2_62/shape_and_slices"
  op: "Const"
  attr {
    key: "_output_shapes"
    value {
      list {
        shape {
          dim {
            size: 1
          }
        }
      }
    }
  }
  attr {
    key: "dtype"
    value {
      type: DT_STRING
    }
  }
  attr {
    key: "value"
    value {
      tensor {
        dtype: DT_STRING
        tensor_shape {
          dim {
            size: 1
          }
        }
        string_val: ""
      }
    }
  }
}
node {
  name: "save/RestoreV2_62"
  op: "RestoreV2"
  input: "save/Const"
  input: "save/RestoreV2_62/tensor_names"
  input: "save/RestoreV2_62/shape_and_slices"
  attr {
    key: "_output_shapes"
    value {
      list {
        shape {
          unknown_rank: true
        }
      }
    }
  }
  attr {
    key: "dtypes"
    value {
      list {
        type: DT_FLOAT
      }
    }
  }
}
node {
  name: "save/Assign_62"
  op: "Assign"
  input: "train_op/encoder/stack_bidirectional_rnn/cell_3/bidirectional_rnn/fw/basic_lstm_cell/kernel/Adam_1"
  input: "save/RestoreV2_62"
  attr {
    key: "T"
    value {
      type: DT_FLOAT
    }
  }
  attr {
    key: "_class"
    value {
      list {
        s: "loc:@encoder/stack_bidirectional_rnn/cell_3/bidirectional_rnn/fw/basic_lstm_cell/kernel"
      }
    }
  }
  attr {
    key: "_output_shapes"
    value {
      list {
        shape {
          dim {
            size: 21
          }
          dim {
            size: 28
          }
        }
      }
    }
  }
  attr {
    key: "use_locking"
    value {
      b: true
    }
  }
  attr {
    key: "validate_shape"
    value {
      b: true
    }
  }
}
node {
  name: "save/RestoreV2_63/tensor_names"
  op: "Const"
  attr {
    key: "_output_shapes"
    value {
      list {
        shape {
          dim {
            size: 1
          }
        }
      }
    }
  }
  attr {
    key: "dtype"
    value {
      type: DT_STRING
    }
  }
  attr {
    key: "value"
    value {
      tensor {
        dtype: DT_STRING
        tensor_shape {
          dim {
            size: 1
          }
        }
        string_val: "train_op/encoder/stack_bidirectional_rnn/cell_4/bidirectional_rnn/bw/basic_lstm_cell/bias/Adam"
      }
    }
  }
}
node {
  name: "save/RestoreV2_63/shape_and_slices"
  op: "Const"
  attr {
    key: "_output_shapes"
    value {
      list {
        shape {
          dim {
            size: 1
          }
        }
      }
    }
  }
  attr {
    key: "dtype"
    value {
      type: DT_STRING
    }
  }
  attr {
    key: "value"
    value {
      tensor {
        dtype: DT_STRING
        tensor_shape {
          dim {
            size: 1
          }
        }
        string_val: ""
      }
    }
  }
}
node {
  name: "save/RestoreV2_63"
  op: "RestoreV2"
  input: "save/Const"
  input: "save/RestoreV2_63/tensor_names"
  input: "save/RestoreV2_63/shape_and_slices"
  attr {
    key: "_output_shapes"
    value {
      list {
        shape {
          unknown_rank: true
        }
      }
    }
  }
  attr {
    key: "dtypes"
    value {
      list {
        type: DT_FLOAT
      }
    }
  }
}
node {
  name: "save/Assign_63"
  op: "Assign"
  input: "train_op/encoder/stack_bidirectional_rnn/cell_4/bidirectional_rnn/bw/basic_lstm_cell/bias/Adam"
  input: "save/RestoreV2_63"
  attr {
    key: "T"
    value {
      type: DT_FLOAT
    }
  }
  attr {
    key: "_class"
    value {
      list {
        s: "loc:@encoder/stack_bidirectional_rnn/cell_4/bidirectional_rnn/bw/basic_lstm_cell/bias"
      }
    }
  }
  attr {
    key: "_output_shapes"
    value {
      list {
        shape {
          dim {
            size: 28
          }
        }
      }
    }
  }
  attr {
    key: "use_locking"
    value {
      b: true
    }
  }
  attr {
    key: "validate_shape"
    value {
      b: true
    }
  }
}
node {
  name: "save/RestoreV2_64/tensor_names"
  op: "Const"
  attr {
    key: "_output_shapes"
    value {
      list {
        shape {
          dim {
            size: 1
          }
        }
      }
    }
  }
  attr {
    key: "dtype"
    value {
      type: DT_STRING
    }
  }
  attr {
    key: "value"
    value {
      tensor {
        dtype: DT_STRING
        tensor_shape {
          dim {
            size: 1
          }
        }
        string_val: "train_op/encoder/stack_bidirectional_rnn/cell_4/bidirectional_rnn/bw/basic_lstm_cell/bias/Adam_1"
      }
    }
  }
}
node {
  name: "save/RestoreV2_64/shape_and_slices"
  op: "Const"
  attr {
    key: "_output_shapes"
    value {
      list {
        shape {
          dim {
            size: 1
          }
        }
      }
    }
  }
  attr {
    key: "dtype"
    value {
      type: DT_STRING
    }
  }
  attr {
    key: "value"
    value {
      tensor {
        dtype: DT_STRING
        tensor_shape {
          dim {
            size: 1
          }
        }
        string_val: ""
      }
    }
  }
}
node {
  name: "save/RestoreV2_64"
  op: "RestoreV2"
  input: "save/Const"
  input: "save/RestoreV2_64/tensor_names"
  input: "save/RestoreV2_64/shape_and_slices"
  attr {
    key: "_output_shapes"
    value {
      list {
        shape {
          unknown_rank: true
        }
      }
    }
  }
  attr {
    key: "dtypes"
    value {
      list {
        type: DT_FLOAT
      }
    }
  }
}
node {
  name: "save/Assign_64"
  op: "Assign"
  input: "train_op/encoder/stack_bidirectional_rnn/cell_4/bidirectional_rnn/bw/basic_lstm_cell/bias/Adam_1"
  input: "save/RestoreV2_64"
  attr {
    key: "T"
    value {
      type: DT_FLOAT
    }
  }
  attr {
    key: "_class"
    value {
      list {
        s: "loc:@encoder/stack_bidirectional_rnn/cell_4/bidirectional_rnn/bw/basic_lstm_cell/bias"
      }
    }
  }
  attr {
    key: "_output_shapes"
    value {
      list {
        shape {
          dim {
            size: 28
          }
        }
      }
    }
  }
  attr {
    key: "use_locking"
    value {
      b: true
    }
  }
  attr {
    key: "validate_shape"
    value {
      b: true
    }
  }
}
node {
  name: "save/RestoreV2_65/tensor_names"
  op: "Const"
  attr {
    key: "_output_shapes"
    value {
      list {
        shape {
          dim {
            size: 1
          }
        }
      }
    }
  }
  attr {
    key: "dtype"
    value {
      type: DT_STRING
    }
  }
  attr {
    key: "value"
    value {
      tensor {
        dtype: DT_STRING
        tensor_shape {
          dim {
            size: 1
          }
        }
        string_val: "train_op/encoder/stack_bidirectional_rnn/cell_4/bidirectional_rnn/bw/basic_lstm_cell/kernel/Adam"
      }
    }
  }
}
node {
  name: "save/RestoreV2_65/shape_and_slices"
  op: "Const"
  attr {
    key: "_output_shapes"
    value {
      list {
        shape {
          dim {
            size: 1
          }
        }
      }
    }
  }
  attr {
    key: "dtype"
    value {
      type: DT_STRING
    }
  }
  attr {
    key: "value"
    value {
      tensor {
        dtype: DT_STRING
        tensor_shape {
          dim {
            size: 1
          }
        }
        string_val: ""
      }
    }
  }
}
node {
  name: "save/RestoreV2_65"
  op: "RestoreV2"
  input: "save/Const"
  input: "save/RestoreV2_65/tensor_names"
  input: "save/RestoreV2_65/shape_and_slices"
  attr {
    key: "_output_shapes"
    value {
      list {
        shape {
          unknown_rank: true
        }
      }
    }
  }
  attr {
    key: "dtypes"
    value {
      list {
        type: DT_FLOAT
      }
    }
  }
}
node {
  name: "save/Assign_65"
  op: "Assign"
  input: "train_op/encoder/stack_bidirectional_rnn/cell_4/bidirectional_rnn/bw/basic_lstm_cell/kernel/Adam"
  input: "save/RestoreV2_65"
  attr {
    key: "T"
    value {
      type: DT_FLOAT
    }
  }
  attr {
    key: "_class"
    value {
      list {
        s: "loc:@encoder/stack_bidirectional_rnn/cell_4/bidirectional_rnn/bw/basic_lstm_cell/kernel"
      }
    }
  }
  attr {
    key: "_output_shapes"
    value {
      list {
        shape {
          dim {
            size: 21
          }
          dim {
            size: 28
          }
        }
      }
    }
  }
  attr {
    key: "use_locking"
    value {
      b: true
    }
  }
  attr {
    key: "validate_shape"
    value {
      b: true
    }
  }
}
node {
  name: "save/RestoreV2_66/tensor_names"
  op: "Const"
  attr {
    key: "_output_shapes"
    value {
      list {
        shape {
          dim {
            size: 1
          }
        }
      }
    }
  }
  attr {
    key: "dtype"
    value {
      type: DT_STRING
    }
  }
  attr {
    key: "value"
    value {
      tensor {
        dtype: DT_STRING
        tensor_shape {
          dim {
            size: 1
          }
        }
        string_val: "train_op/encoder/stack_bidirectional_rnn/cell_4/bidirectional_rnn/bw/basic_lstm_cell/kernel/Adam_1"
      }
    }
  }
}
node {
  name: "save/RestoreV2_66/shape_and_slices"
  op: "Const"
  attr {
    key: "_output_shapes"
    value {
      list {
        shape {
          dim {
            size: 1
          }
        }
      }
    }
  }
  attr {
    key: "dtype"
    value {
      type: DT_STRING
    }
  }
  attr {
    key: "value"
    value {
      tensor {
        dtype: DT_STRING
        tensor_shape {
          dim {
            size: 1
          }
        }
        string_val: ""
      }
    }
  }
}
node {
  name: "save/RestoreV2_66"
  op: "RestoreV2"
  input: "save/Const"
  input: "save/RestoreV2_66/tensor_names"
  input: "save/RestoreV2_66/shape_and_slices"
  attr {
    key: "_output_shapes"
    value {
      list {
        shape {
          unknown_rank: true
        }
      }
    }
  }
  attr {
    key: "dtypes"
    value {
      list {
        type: DT_FLOAT
      }
    }
  }
}
node {
  name: "save/Assign_66"
  op: "Assign"
  input: "train_op/encoder/stack_bidirectional_rnn/cell_4/bidirectional_rnn/bw/basic_lstm_cell/kernel/Adam_1"
  input: "save/RestoreV2_66"
  attr {
    key: "T"
    value {
      type: DT_FLOAT
    }
  }
  attr {
    key: "_class"
    value {
      list {
        s: "loc:@encoder/stack_bidirectional_rnn/cell_4/bidirectional_rnn/bw/basic_lstm_cell/kernel"
      }
    }
  }
  attr {
    key: "_output_shapes"
    value {
      list {
        shape {
          dim {
            size: 21
          }
          dim {
            size: 28
          }
        }
      }
    }
  }
  attr {
    key: "use_locking"
    value {
      b: true
    }
  }
  attr {
    key: "validate_shape"
    value {
      b: true
    }
  }
}
node {
  name: "save/RestoreV2_67/tensor_names"
  op: "Const"
  attr {
    key: "_output_shapes"
    value {
      list {
        shape {
          dim {
            size: 1
          }
        }
      }
    }
  }
  attr {
    key: "dtype"
    value {
      type: DT_STRING
    }
  }
  attr {
    key: "value"
    value {
      tensor {
        dtype: DT_STRING
        tensor_shape {
          dim {
            size: 1
          }
        }
        string_val: "train_op/encoder/stack_bidirectional_rnn/cell_4/bidirectional_rnn/fw/basic_lstm_cell/bias/Adam"
      }
    }
  }
}
node {
  name: "save/RestoreV2_67/shape_and_slices"
  op: "Const"
  attr {
    key: "_output_shapes"
    value {
      list {
        shape {
          dim {
            size: 1
          }
        }
      }
    }
  }
  attr {
    key: "dtype"
    value {
      type: DT_STRING
    }
  }
  attr {
    key: "value"
    value {
      tensor {
        dtype: DT_STRING
        tensor_shape {
          dim {
            size: 1
          }
        }
        string_val: ""
      }
    }
  }
}
node {
  name: "save/RestoreV2_67"
  op: "RestoreV2"
  input: "save/Const"
  input: "save/RestoreV2_67/tensor_names"
  input: "save/RestoreV2_67/shape_and_slices"
  attr {
    key: "_output_shapes"
    value {
      list {
        shape {
          unknown_rank: true
        }
      }
    }
  }
  attr {
    key: "dtypes"
    value {
      list {
        type: DT_FLOAT
      }
    }
  }
}
node {
  name: "save/Assign_67"
  op: "Assign"
  input: "train_op/encoder/stack_bidirectional_rnn/cell_4/bidirectional_rnn/fw/basic_lstm_cell/bias/Adam"
  input: "save/RestoreV2_67"
  attr {
    key: "T"
    value {
      type: DT_FLOAT
    }
  }
  attr {
    key: "_class"
    value {
      list {
        s: "loc:@encoder/stack_bidirectional_rnn/cell_4/bidirectional_rnn/fw/basic_lstm_cell/bias"
      }
    }
  }
  attr {
    key: "_output_shapes"
    value {
      list {
        shape {
          dim {
            size: 28
          }
        }
      }
    }
  }
  attr {
    key: "use_locking"
    value {
      b: true
    }
  }
  attr {
    key: "validate_shape"
    value {
      b: true
    }
  }
}
node {
  name: "save/RestoreV2_68/tensor_names"
  op: "Const"
  attr {
    key: "_output_shapes"
    value {
      list {
        shape {
          dim {
            size: 1
          }
        }
      }
    }
  }
  attr {
    key: "dtype"
    value {
      type: DT_STRING
    }
  }
  attr {
    key: "value"
    value {
      tensor {
        dtype: DT_STRING
        tensor_shape {
          dim {
            size: 1
          }
        }
        string_val: "train_op/encoder/stack_bidirectional_rnn/cell_4/bidirectional_rnn/fw/basic_lstm_cell/bias/Adam_1"
      }
    }
  }
}
node {
  name: "save/RestoreV2_68/shape_and_slices"
  op: "Const"
  attr {
    key: "_output_shapes"
    value {
      list {
        shape {
          dim {
            size: 1
          }
        }
      }
    }
  }
  attr {
    key: "dtype"
    value {
      type: DT_STRING
    }
  }
  attr {
    key: "value"
    value {
      tensor {
        dtype: DT_STRING
        tensor_shape {
          dim {
            size: 1
          }
        }
        string_val: ""
      }
    }
  }
}
node {
  name: "save/RestoreV2_68"
  op: "RestoreV2"
  input: "save/Const"
  input: "save/RestoreV2_68/tensor_names"
  input: "save/RestoreV2_68/shape_and_slices"
  attr {
    key: "_output_shapes"
    value {
      list {
        shape {
          unknown_rank: true
        }
      }
    }
  }
  attr {
    key: "dtypes"
    value {
      list {
        type: DT_FLOAT
      }
    }
  }
}
node {
  name: "save/Assign_68"
  op: "Assign"
  input: "train_op/encoder/stack_bidirectional_rnn/cell_4/bidirectional_rnn/fw/basic_lstm_cell/bias/Adam_1"
  input: "save/RestoreV2_68"
  attr {
    key: "T"
    value {
      type: DT_FLOAT
    }
  }
  attr {
    key: "_class"
    value {
      list {
        s: "loc:@encoder/stack_bidirectional_rnn/cell_4/bidirectional_rnn/fw/basic_lstm_cell/bias"
      }
    }
  }
  attr {
    key: "_output_shapes"
    value {
      list {
        shape {
          dim {
            size: 28
          }
        }
      }
    }
  }
  attr {
    key: "use_locking"
    value {
      b: true
    }
  }
  attr {
    key: "validate_shape"
    value {
      b: true
    }
  }
}
node {
  name: "save/RestoreV2_69/tensor_names"
  op: "Const"
  attr {
    key: "_output_shapes"
    value {
      list {
        shape {
          dim {
            size: 1
          }
        }
      }
    }
  }
  attr {
    key: "dtype"
    value {
      type: DT_STRING
    }
  }
  attr {
    key: "value"
    value {
      tensor {
        dtype: DT_STRING
        tensor_shape {
          dim {
            size: 1
          }
        }
        string_val: "train_op/encoder/stack_bidirectional_rnn/cell_4/bidirectional_rnn/fw/basic_lstm_cell/kernel/Adam"
      }
    }
  }
}
node {
  name: "save/RestoreV2_69/shape_and_slices"
  op: "Const"
  attr {
    key: "_output_shapes"
    value {
      list {
        shape {
          dim {
            size: 1
          }
        }
      }
    }
  }
  attr {
    key: "dtype"
    value {
      type: DT_STRING
    }
  }
  attr {
    key: "value"
    value {
      tensor {
        dtype: DT_STRING
        tensor_shape {
          dim {
            size: 1
          }
        }
        string_val: ""
      }
    }
  }
}
node {
  name: "save/RestoreV2_69"
  op: "RestoreV2"
  input: "save/Const"
  input: "save/RestoreV2_69/tensor_names"
  input: "save/RestoreV2_69/shape_and_slices"
  attr {
    key: "_output_shapes"
    value {
      list {
        shape {
          unknown_rank: true
        }
      }
    }
  }
  attr {
    key: "dtypes"
    value {
      list {
        type: DT_FLOAT
      }
    }
  }
}
node {
  name: "save/Assign_69"
  op: "Assign"
  input: "train_op/encoder/stack_bidirectional_rnn/cell_4/bidirectional_rnn/fw/basic_lstm_cell/kernel/Adam"
  input: "save/RestoreV2_69"
  attr {
    key: "T"
    value {
      type: DT_FLOAT
    }
  }
  attr {
    key: "_class"
    value {
      list {
        s: "loc:@encoder/stack_bidirectional_rnn/cell_4/bidirectional_rnn/fw/basic_lstm_cell/kernel"
      }
    }
  }
  attr {
    key: "_output_shapes"
    value {
      list {
        shape {
          dim {
            size: 21
          }
          dim {
            size: 28
          }
        }
      }
    }
  }
  attr {
    key: "use_locking"
    value {
      b: true
    }
  }
  attr {
    key: "validate_shape"
    value {
      b: true
    }
  }
}
node {
  name: "save/RestoreV2_70/tensor_names"
  op: "Const"
  attr {
    key: "_output_shapes"
    value {
      list {
        shape {
          dim {
            size: 1
          }
        }
      }
    }
  }
  attr {
    key: "dtype"
    value {
      type: DT_STRING
    }
  }
  attr {
    key: "value"
    value {
      tensor {
        dtype: DT_STRING
        tensor_shape {
          dim {
            size: 1
          }
        }
        string_val: "train_op/encoder/stack_bidirectional_rnn/cell_4/bidirectional_rnn/fw/basic_lstm_cell/kernel/Adam_1"
      }
    }
  }
}
node {
  name: "save/RestoreV2_70/shape_and_slices"
  op: "Const"
  attr {
    key: "_output_shapes"
    value {
      list {
        shape {
          dim {
            size: 1
          }
        }
      }
    }
  }
  attr {
    key: "dtype"
    value {
      type: DT_STRING
    }
  }
  attr {
    key: "value"
    value {
      tensor {
        dtype: DT_STRING
        tensor_shape {
          dim {
            size: 1
          }
        }
        string_val: ""
      }
    }
  }
}
node {
  name: "save/RestoreV2_70"
  op: "RestoreV2"
  input: "save/Const"
  input: "save/RestoreV2_70/tensor_names"
  input: "save/RestoreV2_70/shape_and_slices"
  attr {
    key: "_output_shapes"
    value {
      list {
        shape {
          unknown_rank: true
        }
      }
    }
  }
  attr {
    key: "dtypes"
    value {
      list {
        type: DT_FLOAT
      }
    }
  }
}
node {
  name: "save/Assign_70"
  op: "Assign"
  input: "train_op/encoder/stack_bidirectional_rnn/cell_4/bidirectional_rnn/fw/basic_lstm_cell/kernel/Adam_1"
  input: "save/RestoreV2_70"
  attr {
    key: "T"
    value {
      type: DT_FLOAT
    }
  }
  attr {
    key: "_class"
    value {
      list {
        s: "loc:@encoder/stack_bidirectional_rnn/cell_4/bidirectional_rnn/fw/basic_lstm_cell/kernel"
      }
    }
  }
  attr {
    key: "_output_shapes"
    value {
      list {
        shape {
          dim {
            size: 21
          }
          dim {
            size: 28
          }
        }
      }
    }
  }
  attr {
    key: "use_locking"
    value {
      b: true
    }
  }
  attr {
    key: "validate_shape"
    value {
      b: true
    }
  }
}
node {
  name: "save/RestoreV2_71/tensor_names"
  op: "Const"
  attr {
    key: "_output_shapes"
    value {
      list {
        shape {
          dim {
            size: 1
          }
        }
      }
    }
  }
  attr {
    key: "dtype"
    value {
      type: DT_STRING
    }
  }
  attr {
    key: "value"
    value {
      tensor {
        dtype: DT_STRING
        tensor_shape {
          dim {
            size: 1
          }
        }
        string_val: "train_op/fully_connected/biases/Adam"
      }
    }
  }
}
node {
  name: "save/RestoreV2_71/shape_and_slices"
  op: "Const"
  attr {
    key: "_output_shapes"
    value {
      list {
        shape {
          dim {
            size: 1
          }
        }
      }
    }
  }
  attr {
    key: "dtype"
    value {
      type: DT_STRING
    }
  }
  attr {
    key: "value"
    value {
      tensor {
        dtype: DT_STRING
        tensor_shape {
          dim {
            size: 1
          }
        }
        string_val: ""
      }
    }
  }
}
node {
  name: "save/RestoreV2_71"
  op: "RestoreV2"
  input: "save/Const"
  input: "save/RestoreV2_71/tensor_names"
  input: "save/RestoreV2_71/shape_and_slices"
  attr {
    key: "_output_shapes"
    value {
      list {
        shape {
          unknown_rank: true
        }
      }
    }
  }
  attr {
    key: "dtypes"
    value {
      list {
        type: DT_FLOAT
      }
    }
  }
}
node {
  name: "save/Assign_71"
  op: "Assign"
  input: "train_op/fully_connected/biases/Adam"
  input: "save/RestoreV2_71"
  attr {
    key: "T"
    value {
      type: DT_FLOAT
    }
  }
  attr {
    key: "_class"
    value {
      list {
        s: "loc:@fully_connected/biases"
      }
    }
  }
  attr {
    key: "_output_shapes"
    value {
      list {
        shape {
          dim {
            size: 7
          }
        }
      }
    }
  }
  attr {
    key: "use_locking"
    value {
      b: true
    }
  }
  attr {
    key: "validate_shape"
    value {
      b: true
    }
  }
}
node {
  name: "save/RestoreV2_72/tensor_names"
  op: "Const"
  attr {
    key: "_output_shapes"
    value {
      list {
        shape {
          dim {
            size: 1
          }
        }
      }
    }
  }
  attr {
    key: "dtype"
    value {
      type: DT_STRING
    }
  }
  attr {
    key: "value"
    value {
      tensor {
        dtype: DT_STRING
        tensor_shape {
          dim {
            size: 1
          }
        }
        string_val: "train_op/fully_connected/biases/Adam_1"
      }
    }
  }
}
node {
  name: "save/RestoreV2_72/shape_and_slices"
  op: "Const"
  attr {
    key: "_output_shapes"
    value {
      list {
        shape {
          dim {
            size: 1
          }
        }
      }
    }
  }
  attr {
    key: "dtype"
    value {
      type: DT_STRING
    }
  }
  attr {
    key: "value"
    value {
      tensor {
        dtype: DT_STRING
        tensor_shape {
          dim {
            size: 1
          }
        }
        string_val: ""
      }
    }
  }
}
node {
  name: "save/RestoreV2_72"
  op: "RestoreV2"
  input: "save/Const"
  input: "save/RestoreV2_72/tensor_names"
  input: "save/RestoreV2_72/shape_and_slices"
  attr {
    key: "_output_shapes"
    value {
      list {
        shape {
          unknown_rank: true
        }
      }
    }
  }
  attr {
    key: "dtypes"
    value {
      list {
        type: DT_FLOAT
      }
    }
  }
}
node {
  name: "save/Assign_72"
  op: "Assign"
  input: "train_op/fully_connected/biases/Adam_1"
  input: "save/RestoreV2_72"
  attr {
    key: "T"
    value {
      type: DT_FLOAT
    }
  }
  attr {
    key: "_class"
    value {
      list {
        s: "loc:@fully_connected/biases"
      }
    }
  }
  attr {
    key: "_output_shapes"
    value {
      list {
        shape {
          dim {
            size: 7
          }
        }
      }
    }
  }
  attr {
    key: "use_locking"
    value {
      b: true
    }
  }
  attr {
    key: "validate_shape"
    value {
      b: true
    }
  }
}
node {
  name: "save/RestoreV2_73/tensor_names"
  op: "Const"
  attr {
    key: "_output_shapes"
    value {
      list {
        shape {
          dim {
            size: 1
          }
        }
      }
    }
  }
  attr {
    key: "dtype"
    value {
      type: DT_STRING
    }
  }
  attr {
    key: "value"
    value {
      tensor {
        dtype: DT_STRING
        tensor_shape {
          dim {
            size: 1
          }
        }
        string_val: "train_op/fully_connected/weights/Adam"
      }
    }
  }
}
node {
  name: "save/RestoreV2_73/shape_and_slices"
  op: "Const"
  attr {
    key: "_output_shapes"
    value {
      list {
        shape {
          dim {
            size: 1
          }
        }
      }
    }
  }
  attr {
    key: "dtype"
    value {
      type: DT_STRING
    }
  }
  attr {
    key: "value"
    value {
      tensor {
        dtype: DT_STRING
        tensor_shape {
          dim {
            size: 1
          }
        }
        string_val: ""
      }
    }
  }
}
node {
  name: "save/RestoreV2_73"
  op: "RestoreV2"
  input: "save/Const"
  input: "save/RestoreV2_73/tensor_names"
  input: "save/RestoreV2_73/shape_and_slices"
  attr {
    key: "_output_shapes"
    value {
      list {
        shape {
          unknown_rank: true
        }
      }
    }
  }
  attr {
    key: "dtypes"
    value {
      list {
        type: DT_FLOAT
      }
    }
  }
}
node {
  name: "save/Assign_73"
  op: "Assign"
  input: "train_op/fully_connected/weights/Adam"
  input: "save/RestoreV2_73"
  attr {
    key: "T"
    value {
      type: DT_FLOAT
    }
  }
  attr {
    key: "_class"
    value {
      list {
        s: "loc:@fully_connected/weights"
      }
    }
  }
  attr {
    key: "_output_shapes"
    value {
      list {
        shape {
          dim {
            size: 14
          }
          dim {
            size: 7
          }
        }
      }
    }
  }
  attr {
    key: "use_locking"
    value {
      b: true
    }
  }
  attr {
    key: "validate_shape"
    value {
      b: true
    }
  }
}
node {
  name: "save/RestoreV2_74/tensor_names"
  op: "Const"
  attr {
    key: "_output_shapes"
    value {
      list {
        shape {
          dim {
            size: 1
          }
        }
      }
    }
  }
  attr {
    key: "dtype"
    value {
      type: DT_STRING
    }
  }
  attr {
    key: "value"
    value {
      tensor {
        dtype: DT_STRING
        tensor_shape {
          dim {
            size: 1
          }
        }
        string_val: "train_op/fully_connected/weights/Adam_1"
      }
    }
  }
}
node {
  name: "save/RestoreV2_74/shape_and_slices"
  op: "Const"
  attr {
    key: "_output_shapes"
    value {
      list {
        shape {
          dim {
            size: 1
          }
        }
      }
    }
  }
  attr {
    key: "dtype"
    value {
      type: DT_STRING
    }
  }
  attr {
    key: "value"
    value {
      tensor {
        dtype: DT_STRING
        tensor_shape {
          dim {
            size: 1
          }
        }
        string_val: ""
      }
    }
  }
}
node {
  name: "save/RestoreV2_74"
  op: "RestoreV2"
  input: "save/Const"
  input: "save/RestoreV2_74/tensor_names"
  input: "save/RestoreV2_74/shape_and_slices"
  attr {
    key: "_output_shapes"
    value {
      list {
        shape {
          unknown_rank: true
        }
      }
    }
  }
  attr {
    key: "dtypes"
    value {
      list {
        type: DT_FLOAT
      }
    }
  }
}
node {
  name: "save/Assign_74"
  op: "Assign"
  input: "train_op/fully_connected/weights/Adam_1"
  input: "save/RestoreV2_74"
  attr {
    key: "T"
    value {
      type: DT_FLOAT
    }
  }
  attr {
    key: "_class"
    value {
      list {
        s: "loc:@fully_connected/weights"
      }
    }
  }
  attr {
    key: "_output_shapes"
    value {
      list {
        shape {
          dim {
            size: 14
          }
          dim {
            size: 7
          }
        }
      }
    }
  }
  attr {
    key: "use_locking"
    value {
      b: true
    }
  }
  attr {
    key: "validate_shape"
    value {
      b: true
    }
  }
}
node {
  name: "save/RestoreV2_75/tensor_names"
  op: "Const"
  attr {
    key: "_output_shapes"
    value {
      list {
        shape {
          dim {
            size: 1
          }
        }
      }
    }
  }
  attr {
    key: "dtype"
    value {
      type: DT_STRING
    }
  }
  attr {
    key: "value"
    value {
      tensor {
        dtype: DT_STRING
        tensor_shape {
          dim {
            size: 1
          }
        }
        string_val: "train_op/learning_rate"
      }
    }
  }
}
node {
  name: "save/RestoreV2_75/shape_and_slices"
  op: "Const"
  attr {
    key: "_output_shapes"
    value {
      list {
        shape {
          dim {
            size: 1
          }
        }
      }
    }
  }
  attr {
    key: "dtype"
    value {
      type: DT_STRING
    }
  }
  attr {
    key: "value"
    value {
      tensor {
        dtype: DT_STRING
        tensor_shape {
          dim {
            size: 1
          }
        }
        string_val: ""
      }
    }
  }
}
node {
  name: "save/RestoreV2_75"
  op: "RestoreV2"
  input: "save/Const"
  input: "save/RestoreV2_75/tensor_names"
  input: "save/RestoreV2_75/shape_and_slices"
  attr {
    key: "_output_shapes"
    value {
      list {
        shape {
          unknown_rank: true
        }
      }
    }
  }
  attr {
    key: "dtypes"
    value {
      list {
        type: DT_FLOAT
      }
    }
  }
}
node {
  name: "save/Assign_75"
  op: "Assign"
  input: "train_op/learning_rate"
  input: "save/RestoreV2_75"
  attr {
    key: "T"
    value {
      type: DT_FLOAT
    }
  }
  attr {
    key: "_class"
    value {
      list {
        s: "loc:@train_op/learning_rate"
      }
    }
  }
  attr {
    key: "_output_shapes"
    value {
      list {
        shape {
        }
      }
    }
  }
  attr {
    key: "use_locking"
    value {
      b: true
    }
  }
  attr {
    key: "validate_shape"
    value {
      b: true
    }
  }
}
node {
  name: "save/restore_shard"
  op: "NoOp"
  input: "^save/Assign"
  input: "^save/Assign_1"
  input: "^save/Assign_2"
  input: "^save/Assign_3"
  input: "^save/Assign_4"
  input: "^save/Assign_5"
  input: "^save/Assign_6"
  input: "^save/Assign_7"
  input: "^save/Assign_8"
  input: "^save/Assign_9"
  input: "^save/Assign_10"
  input: "^save/Assign_11"
  input: "^save/Assign_12"
  input: "^save/Assign_13"
  input: "^save/Assign_14"
  input: "^save/Assign_15"
  input: "^save/Assign_16"
  input: "^save/Assign_17"
  input: "^save/Assign_18"
  input: "^save/Assign_19"
  input: "^save/Assign_20"
  input: "^save/Assign_21"
  input: "^save/Assign_22"
  input: "^save/Assign_23"
  input: "^save/Assign_24"
  input: "^save/Assign_25"
  input: "^save/Assign_26"
  input: "^save/Assign_27"
  input: "^save/Assign_28"
  input: "^save/Assign_29"
  input: "^save/Assign_30"
  input: "^save/Assign_31"
  input: "^save/Assign_32"
  input: "^save/Assign_33"
  input: "^save/Assign_34"
  input: "^save/Assign_35"
  input: "^save/Assign_36"
  input: "^save/Assign_37"
  input: "^save/Assign_38"
  input: "^save/Assign_39"
  input: "^save/Assign_40"
  input: "^save/Assign_41"
  input: "^save/Assign_42"
  input: "^save/Assign_43"
  input: "^save/Assign_44"
  input: "^save/Assign_45"
  input: "^save/Assign_46"
  input: "^save/Assign_47"
  input: "^save/Assign_48"
  input: "^save/Assign_49"
  input: "^save/Assign_50"
  input: "^save/Assign_51"
  input: "^save/Assign_52"
  input: "^save/Assign_53"
  input: "^save/Assign_54"
  input: "^save/Assign_55"
  input: "^save/Assign_56"
  input: "^save/Assign_57"
  input: "^save/Assign_58"
  input: "^save/Assign_59"
  input: "^save/Assign_60"
  input: "^save/Assign_61"
  input: "^save/Assign_62"
  input: "^save/Assign_63"
  input: "^save/Assign_64"
  input: "^save/Assign_65"
  input: "^save/Assign_66"
  input: "^save/Assign_67"
  input: "^save/Assign_68"
  input: "^save/Assign_69"
  input: "^save/Assign_70"
  input: "^save/Assign_71"
  input: "^save/Assign_72"
  input: "^save/Assign_73"
  input: "^save/Assign_74"
  input: "^save/Assign_75"
}
node {
  name: "save/restore_all"
  op: "NoOp"
  input: "^save/restore_shard"
}
versions {
  producer: 24
}
